UsefulClicker/py/model.ckpt (torch, 83573 bytes, 14 tensors)

layer1.0.weight f4 [16, 1, 5, 5]
000000 b0 fb e3 bd 1f c1 c8 bd 03 47 e2 3d c4 7f 2d 3e
       -0.1113199 -0.0980246 0.11048701 0.1694327
000010 93 7a 71 3d f6 d4 eb bd be 14 81 3d dd 22 5f be
       0.058954787 -0.115152285 0.063027844 -0.21790643
000020 1a e2 91 3d 31 79 37 bc 0b 37 be be 98 d2 e6 3d
       0.071232036 -0.011198328 -0.3715137 0.11270636
000030 d6 a1 b1 bd af 1b 23 be dd 0f da 3d 71 67 28 3a
       -0.08673446 -0.15928529 0.10647557 0.00064241054
000040 2d ef 30 3e 9d df 36 be 74 b5 26 3c 41 d0 51 3e
       0.17278738 -0.17858739 0.010175098 0.20489599
000050 6e 93 d7 3d f8 9e a6 bd c3 5c 80 3d f1 0c bb 3c
       0.10526167 -0.0813579 0.06267693 0.02283332
000060 f0 80 00 be 17 8a 52 bd 71 90 77 3d 38 7e 9c bc
       -0.12549186 -0.051401224 0.060440484 -0.019103155
000070 23 9f db bd 68 07 4a 3e 8f 09 b1 3d 77 d0 6a bd
       -0.10723712 0.19729388 0.08644401 -0.057327714
000080 96 a1 80 3d 8f d0 51 3e 83 08 02 3e b8 62 da 3d
       0.0628082 0.20489715 0.1269856 0.1066336
000090 98 5c 29 3e 57 9c 8e bd 07 da ec 3d fb 31 07 be
       0.16539228 -0.06963413 0.11565023 -0.1320266
0000a0 87 b4 43 3e 1b 7d 37 3e 20 4b 79 bd 41 68 57 3e
       0.19111834 0.17918818 -0.06086266 0.21035863
0000b0 53 9e db bd 99 2f dc 3c 96 6e d8 bd 2b 5e 5b 3e
       -0.10723557 0.026878165 -0.105679676 0.21422641
0000c0 ad 62 25 3e 05 4e 83 bd b5 ef 97 3c ab f5 d7 bb
       0.16150923 -0.064113654 0.018546918 -0.006590565
0000d0 c5 ea c5 3b fd f6 5e 3e ac ed 2b be 86 0f 29 be
       0.0060399496 0.21773906 -0.16789883 -0.16509828
0000e0 90 35 fb 3d 73 62 12 be 48 d2 79 3e 6a 57 82 3d
       0.122660756 -0.14295368 0.24396622 0.06364329
0000f0 03 f4 34 3e 9e 11 84 be c6 f0 32 bd 55 39 d0 3d
       0.17671208 -0.2579469 -0.04368665 0.10167185
000100 09 59 30 3e 92 00 b7 3d 8f 1d 19 be 0d 8e 18 be
       0.17221464 0.08935656 -0.14952682 -0.14897938
000110 ec 65 33 be f4 d4 e1 3b dc 10 29 bd eb 30 a4 3e
       -0.17519349 0.006891841 -0.041275844 0.3206857
000120 46 2f ea 3d 88 c2 e9 3c fc e7 e1 bd 49 a9 a0 3e
       0.11434798 0.028535143 -0.11030576 0.31379154
000130 d8 42 2f bc ef a7 1d 3d 16 71 ac bd 00 4d 47 3d
       -0.010697089 0.038490232 -0.08420007 0.048657417
000140 73 d1 89 3d 91 44 79 3d c1 5d d6 3c b5 d6 2a be
       0.067294024 0.060856406 0.026167752 -0.16683467
000150 cd e4 21 bd f7 fc 83 bd 1c 25 23 be bc 24 92 be
       -0.039524842 -0.064447336 -0.15932125 -0.2854365
000160 88 8a f8 bd 23 64 ca bd c0 11 dd bd f5 da 1d 3d
       -0.12135798 -0.09882381 -0.10794401 0.03853889
000170 00 85 9d bc e2 8f 34 3e fc 6e f9 3d b4 1a a3 3b
       -0.019228458 0.17633012 0.12179372 0.0049775485
000180 19 72 81 bd 5a b7 9e 3d a0 8b de bb de ee 04 3e
       -0.063205905 0.07749815 -0.006791547 0.12981746
000190 fd af 80 3c ae cd aa 3c a3 ed 65 3d e6 4b 33 3e
       0.015708918 0.020850029 0.05613483 0.17509422
0001a0 2d 55 da bd d8 6c 5b bc d1 ce d1 3c f0 7a 81 3d
       -0.10660777 -0.01339265 0.025611313 0.063222766
0001b0 5f 3c 79 3d b5 17 60 bd cb 62 58 3e d9 b0 f7 bd
       0.06084859 -0.05471011 0.21131437 -0.12094278
0001c0 69 9c 59 3d ac 52 80 3d 95 15 dc 3d 96 e9 5b 3e
       0.05312768 0.062657684 0.10746304 0.21475825
0001d0 ec 67 87 3d f6 cf 24 3e a3 f3 3d 3d fb 35 dd 3d
       0.066116184 0.16094956 0.04637493 0.108013116
0001e0 dd d6 81 3e 11 96 65 3e d0 d6 1c be 34 5c 2a bd
       0.2535924 0.22420527 -0.1531632 -0.041591838
0001f0 de 8f e8 bd 87 ac 0d 3e dd 6d 3c 3e da df ae 3e
       -0.113555655 0.13835345 0.18401285 0.3415516
000200 ff 12 0a 3e 1b 7b 4f 3d 32 99 0e bd 9b 80 54 bd
       0.13483809 0.050654512 -0.034814067 -0.05188046
000210 dc 9b 19 3e fd e1 db 3b ba e9 27 be 4b d7 8f be
       0.15000862 0.0067102895 -0.16397753 -0.28093943
000220 9f 10 8b bc 38 58 1e 3d a1 bd 1d be 62 ad a2 3c
       -0.016975699 0.03865835 -0.15404369 0.019858066
000230 c6 d1 93 be d8 b9 a0 be 8e be f5 bc eb 4c f0 3a
       -0.28870982 -0.31391788 -0.02999809 0.001833347
000240 d1 f1 0d 3d 83 fb 12 be fe 2d b5 bc 76 05 18 3c
       0.034654442 -0.14353757 -0.022116657 0.009278646
000250 c6 ac 41 3c 88 ad c4 3d f4 85 f9 bd a6 d1 86 3e
       0.011820978 0.09603411 -0.12183753 0.26331824
000260 ec 75 87 3d 20 fd 07 bd c1 44 0b 3e 41 b8 f8 3c
       0.06614289 -0.033200383 0.13600446 0.030361297
000270 a5 0d 4c 3e 4b c8 4f 3e 1c 3d dd 3d 87 ed 9f 3d
       0.1992708 0.2029125 0.10802671 0.078089766
000280 97 0d 00 3e ba c2 e7 bd 89 a3 b3 bd 4c 78 bf bd
       0.12505184 -0.11316438 -0.08771426 -0.09349117
000290 44 69 88 bc 20 65 84 3d 75 c3 25 3e 0a 44 1e 3e
       -0.016651757 0.064646006 0.16187842 0.15455642
0002a0 53 a9 8d 3d 67 74 23 bd e1 66 23 be d5 74 13 3e
       0.06917062 -0.03990593 -0.15957214 0.14400037
0002b0 a1 06 18 3c e2 94 e4 3d 12 7b cb bd 31 24 8b bd
       0.009278924 0.1116121 -0.09935583 -0.06794012
0002c0 16 69 9a 3d 54 01 57 3e 38 a9 f0 3d a8 ef dd 3d
       0.07539575 0.209966 0.11751026 0.108367264
0002d0 78 99 ac 3c 1b 57 b9 bd ce 1c f2 bc 23 35 e0 3c
       0.021069273 -0.09049817 -0.02955475 0.027369088
0002e0 2e c5 48 be 1f fe b8 bb 73 5a 25 3d 3d 3e 41 be
       -0.19606468 -0.005645528 0.040369462 -0.18871398
0002f0 92 22 09 3d f7 57 26 be 85 7b c0 3b 2f a1 63 3e
       0.033480234 -0.16244493 0.0058740997 0.22229455
000300 86 18 49 bc af d2 28 3e 3f 76 11 3e 29 b9 e4 bd
       -0.012273913 0.1648662 0.14205264 -0.11168129
000310 60 94 6f 3e c5 cd 1a bc 84 c4 b7 3d 70 17 22 3e
       0.23396444 -0.009448473 0.08973029 0.15829253
000320 c6 8f 2a bd 9a 0b c4 bd a9 2c d3 bd 36 d3 d9 3c
       -0.04164102 -0.09572525 -0.103112526 0.026589971
000330 be 09 8d bd 4c 1b 16 be 40 10 83 3e ce 86 80 be
       -0.06886624 -0.1465885 0.25598335 -0.25102848
000340 3f ee a8 3e ec ea f7 bd 18 ed 98 bd b9 f3 05 be
       0.32994267 -0.12105355 -0.07467097 -0.13081254
000350 56 a9 25 be 0c dc a5 3d cf 26 0d 3e 1e 63 ed 3d
       -0.16177878 0.08098611 0.13784336 0.11591171
000360 e7 18 29 bc 9c 80 40 be ef be b4 3c 53 f1 87 bd
       -0.010320879 -0.1879906 0.0220637 -0.06637826
000370 30 89 5c 3e bc 26 36 be 44 f9 c2 3d 5c f5 c5 bd
       0.21536708 -0.17788213 0.095202 -0.09665939
000380 4e 19 b2 bc 15 2a d7 bc a3 1a 1f bc ee 21 b5 3d
       -0.021740582 -0.026265183 -0.0097109405 0.08844362
000390 29 67 6c 3e 43 34 6d 3e 3b d2 24 3e 22 d6 3a bd
       0.23086227 0.23164468 0.16095822 -0.04561437
0003a0 92 9d ce bd 72 75 31 3e b4 bb 49 3e 01 85 50 3e
       -0.10088648 0.17329958 0.1970051 0.20363237
0003b0 56 c4 02 3e 8d 7e 20 bd 17 77 e0 bc 96 2f 98 3c
       0.12770209 -0.03918319 -0.027400536 0.018577378
0003c0 88 81 4e 3d 81 78 2a bd e8 47 c5 3d 95 f0 80 bd
       0.0504165 -0.041618828 0.09632856 -0.062958874
0003d0 28 86 66 3e 7b 3e 55 3b ac c0 6c be d4 c3 b6 3d
       0.22512114 0.0032538462 -0.23120373 0.0892407
0003e0 9d ae c1 3d 25 c5 df bd dd 62 31 3d 55 af ba bd
       0.09457133 -0.10926274 0.043307174 -0.09115473
0003f0 4f 41 f5 bd ff 13 c9 bc 22 45 91 bc 77 14 69 3e
       -0.11975347 -0.024545668 -0.01773316 0.22761713

layer1.0.bias f4 [16]
000000 9e 9c 27 3c 90 3f 1b be c7 53 45 be c3 7f a4 3c
       0.010230212 -0.15160966 -0.1927024 0.020080453
000010 71 2e 3d 3c e8 0c 06 bd 91 40 da bd 0b 32 b2 3d
       0.011546717 -0.032727152 -0.10656846 0.08700951
000020 d8 21 a8 3e a9 36 c8 3a 66 8f aa 3e 56 46 21 bd
       0.3283832 0.0015275079 0.3331253 -0.03937372
000030 a9 a2 09 3e 7d cb 5e bb bb 1e d9 3b 21 ad aa be
       0.13440956 -0.00339958 0.006625978 -0.33335212

layer1.1.weight f4 [16]
000000 60 98 8e 3f f7 a7 7a 3e bc f2 90 3f 7d f1 c4 3f
       1.1140251 0.24478136 1.1324077 1.5386196
000010 19 2e 5b 3e ac 29 28 3f 6d 48 7b 3e 02 38 b8 3e
       0.21404304 0.65688586 0.24539347 0.3598023
000020 0e dd a6 3f db b7 bf 3e 1f 07 9f 3f 23 31 8a 3f
       1.303621 0.37444958 1.2424048 1.0796245
000030 94 53 2d 3f 6e 3f 8b 3e 6a e3 96 3f 24 25 97 3f
       0.67705655 0.2719683 1.1788151 1.180821

layer1.1.bias f4 [16]
000000 36 1c 55 3d 65 43 34 bf 4c 4b df 3c 9f ae 80 3c
       0.052028857 -0.70415336 0.027257584 0.015708266
000010 24 6b df be 18 bf 98 be 52 1c c6 be 01 cc aa be
       -0.4363643 -0.29833293 -0.38693482 -0.33358768
000020 25 c5 4e 3d 38 a2 da be 5d 15 32 3e ed e1 c0 bd
       0.05048098 -0.42701888 0.17390962 -0.09418092
000030 b5 2b a3 be a1 34 17 bf a1 a5 92 be aa 9a 90 be
       -0.31869283 -0.5906468 -0.2864199 -0.28243

layer1.1.running_mean f4 [16]
000000 69 21 e3 bb 58 2f b6 bd 3d 86 38 be 27 e8 4a 3c
       -0.006931473 -0.08895749 -0.18019958 0.012384451
000010 0a 01 97 3d 32 ce 39 bd 25 d5 52 bd db c3 fb 3d
       0.07373245 -0.04536266 -0.0514728 0.12293216
000020 b9 5b 9c 3e d1 36 7e 3d 35 d0 ab 3e 2d a6 c2 bc
       0.3053873 0.062063996 0.33557287 -0.02376088
000030 3a 19 e6 3d a3 7a dc 3c 35 69 9f bc a0 5c a1 be
       0.1123528 0.026913946 -0.019459346 -0.3151598

layer1.1.running_var f4 [16]
000000 5f 59 c6 3a 2f ec b6 3c 94 df 67 3a d8 33 cb 39
       0.0015132836 0.022329418 0.00088452664 0.00038757804
000010 05 9c b5 3c 6c 38 5d 3b 55 c5 8c 3c 2d ec f2 3b
       0.022169122 0.0033755554 0.017183939 0.0074134083
000020 70 ab 43 3b 00 8d ad 3c d0 47 b9 37 a7 37 b3 3a
       0.0029856823 0.021185398 2.2087159e-05 0.0013673202
000030 24 2b 93 3b be 48 be 3b 81 30 ac 3b 5e fb 05 3b
       0.0044912267 0.0058070114 0.0052548056 0.0020444016

layer2.0.weight f4 [32, 16, 5, 5]
000000 0f be 57 3d 90 a1 e5 3c 34 ae cc bd 57 9f 02 3c
       0.05267149 0.02803114 -0.09994164 0.00797256
000010 ad c7 06 3c bb e2 81 3c 37 41 06 3d 4a 00 43 be
       0.008226317 0.015855184 0.032777037 -0.19043079
000020 ec a3 c9 39 8d d2 38 3d f4 34 03 bc 0d 98 56 3d
       0.0003845984 0.045122672 -0.0080082305 0.0523911
000030 0f e9 6c bc 87 ee 4f 3d 84 b1 0c bd c5 19 cc ba
       -0.014459862 0.050764587 -0.03434898 -0.0015571645
000040 fd 65 c0 3d 56 19 05 bc 1b bd 89 bc d3 bb 92 3b
       0.09394453 -0.008123716 -0.016813805 0.004477957
000050 e5 37 83 3d 9b bd c9 3d 21 82 14 3d 3a 15 51 3d
       0.064071454 0.098506175 0.036256913 0.051045634
000060 b5 08 9f bc c1 c6 2a 3d f7 7e 1a bd d3 43 e5 bc
       -0.019413332 0.041693453 -0.03771874 -0.027986443
000070 b5 24 06 3d 10 8c 20 bc 2e 35 2e 3c b5 ac 5b 3b
       0.03274985 -0.0097990185 0.010632796 0.003351969
000080 ca bd ef 3c a6 70 4a 3d 6c cb 85 3c 62 69 ea 3b
       0.029265303 0.049423836 0.01633235 0.007153676
000090 70 4a b4 bc 34 e3 12 bd b2 dd 6f bc 32 0f 95 3a
       -0.02200815 -0.03586121 -0.014640259 0.0011372326
0000a0 33 4f 9e bc 5b bf 61 bd 13 0e 92 bc 27 a4 0c bd
       -0.019324875 -0.05511413 -0.017828977 -0.034336235
0000b0 fd 4c 83 bc 78 9c 09 bb a7 e3 1a bd 7e 59 fb 39
       -0.016027922 -0.0020997804 -0.037814762 0.00047941128
0000c0 9d 91 2b bc b5 37 b8 3c 77 c8 41 bc 9d 7c cf 3c
       -0.010471729 0.0224875 -0.01182758 0.025327975
0000d0 7d 71 43 3d 01 79 7c 3d af 83 0c 3d 08 c6 f5 3c
       0.047715653 0.061638836 0.03430527 0.030001655
0000e0 a7 cf 36 bd b9 8d 7f bd 1d 25 33 3d 2a 4c 02 3d
       -0.044631626 -0.062391017 0.043736566 0.031810917
0000f0 e1 6f dc 3d 04 ab e4 bb f7 33 0a be 4f bc 70 bc
       0.10763527 -0.0069783945 -0.13496386 -0.014693334
000100 1c 5f 97 3c a4 3c 57 3d 27 de f8 3d 2e 67 ab bd
       0.018477969 0.052548066 0.12151747 -0.08369289
000110 13 ab 4c bd 5f 3b 4f bb 52 e7 44 3c de 87 08 3d
       -0.049967837 -0.0031621081 0.012018042 0.033332698
000120 31 be a0 3c 0d 25 fc 3d 7e 8f b1 3d c1 9d ba 3c
       0.01962194 0.123117544 0.08669947 0.022780301
000130 a2 80 28 be 91 21 e9 bd 83 63 c4 3c b6 6b 71 3c
       -0.1645532 -0.113833554 0.023973232 0.014735153
000140 19 d2 4d be 97 29 84 be 26 34 c6 bd 15 5d de bd
       -0.20099677 -0.2581298 -0.09677915 -0.10857598
000150 cb 6c 0e be 02 01 1a be 50 9f 0f be a9 81 a1 bb
       -0.13908689 -0.15039447 -0.14025617 -0.004928787
000160 52 d6 93 3c c6 e2 e9 bd d2 aa 81 3c ad ae b1 bc
       0.018046532 -0.11420207 0.015828524 -0.021689737
000170 ec 47 1e bc c1 30 0c 3b 6f b7 40 be b2 cc 20 3c
       -0.009660702 0.0021391364 -0.18819974 0.009814428
000180 42 81 06 be a7 ae 0a be 1d 94 8c bd 0d 58 e8 bd
       -0.13135245 -0.13543187 -0.06864188 -0.11344919
000190 d4 6d 58 bc a2 f2 d6 bc af 13 79 3d 77 b9 42 3c
       -0.013209779 -0.026238743 0.060809787 0.011885039
0001a0 85 5b d2 bc 0b 70 40 3d 11 a9 8f 3b 43 da ec bc
       -0.025678406 0.046981853 0.004384168 -0.028912669
0001b0 10 2d f9 bc c4 22 7e bc 0f c0 a3 bc 05 cc 20 bc
       -0.030416995 -0.015511218 -0.019989042 -0.009814267
0001c0 3e 65 a0 3c fc 62 18 3d f3 52 87 bc a4 af 04 3d
       0.019579526 0.037203774 -0.016519045 0.032394066
0001d0 2b f4 f4 bc de cb 4f bb 71 1a 2c bc 21 d3 1b bd
       -0.029901585 -0.0031707208 -0.010504351 -0.038043145
0001e0 ad fa c2 bc 17 57 58 bd 10 42 f3 3b cb de 53 3c
       -0.023801172 -0.05281743 0.0074236467 0.012931536
0001f0 5e d7 2b 3d 44 4d b1 3c 41 a6 89 3c b0 ef 29 3c
       0.041953437 0.021643288 0.016802909 0.010372087
000200 63 85 c4 bc b5 9e f1 3c 4b 94 d8 bc 9c 3e ce 3d
       -0.023989385 0.029494623 -0.0264379 0.100705355
000210 34 03 0a bd b7 e9 31 bd 6a 44 9c 3c 41 3b d0 3c
       -0.03369446 -0.04343578 0.019075591 0.02541888
000220 5f 54 0d 3e ee 10 f8 bc 15 6c 3d 3d 87 f5 c8 3b
       0.13801716 -0.03028151 0.046245653 0.0061327848
000230 62 49 73 3b fb 7f 48 3d ab 99 9c bc e6 a4 f1 3c
       0.0037122597 0.048950177 -0.019116243 0.029497575
000240 87 d1 85 bc 17 d2 20 3c 70 55 7c 3d af 81 eb 3c
       -0.016335262 0.009815714 0.061604917 0.028748361
000250 69 2d 5b bc df f1 98 bb 37 1a 1a 3c 7d 73 49 bc
       -0.013377526 -0.004667505 0.009405664 -0.012295601
000260 74 cf 4a 3d 93 5f 36 bd b8 4b ff bc 6e cd 05 3d
       0.04951425 -0.04452474 -0.031164035 0.032666616
000270 77 99 d7 bb 7e 8f 6f bc 3a ec 45 bb b5 72 05 36
       -0.0065795737 -0.014621614 -0.0030200616 1.9885313e-06
000280 80 cc 1a bc a6 e0 41 39 bc f4 48 3d 39 d8 03 3c
       -0.009448171 0.00018489602 0.049061522 0.008047157
000290 40 fa 5b 3c 4f 1e 20 bd 97 7c 40 3d f0 7c b5 bc
       0.0134263635 -0.039091405 0.046993818 -0.022154301
0002a0 bd bb 50 3d 11 ba 0f 3d bf 65 b1 bc 40 5f 48 3d
       0.05096029 0.035089556 -0.021654962 0.048918962
0002b0 7f a9 5e 3c 61 5c 92 3c 7f 5c e9 3c 8f d4 18 bc
       0.013590216 0.017866315 0.028486488 -0.009328022
0002c0 19 4d 1e bc f1 a1 e7 bc c8 c0 05 3d 12 20 8b bd
       -0.009661936 -0.028275462 0.032654554 -0.06793226
0002d0 c2 7f cf 3c 05 0a 39 3d 94 22 b3 bc ce c2 16 bd
       0.025329474 0.04517557 -0.021867074 -0.036806874
0002e0 93 fe b6 bc 24 00 0d bd e4 fe 40 3d 09 a0 93 3b
       -0.022338187 -0.034423962 0.047118083 0.0045051617
0002f0 45 fe 24 bd c0 8c 3f bc e5 45 db 3c 7c 73 00 bc
       -0.040281553 -0.011691272 0.026766727 -0.007840034
000300 26 6e c0 3b 18 1e 57 bb 7e bb 30 3d ea ff d4 3c
       0.0058725057 -0.0032824334 0.043147556 0.026000936
000310 d2 64 f3 3b 1d ff 35 bc c5 46 36 bd ee ee 12 bc
       0.00742779 -0.011108187 -0.044501085 -0.008968098
000320 10 59 64 3c 2c 23 0f bb f1 1c 8a bd 1e 43 f6 3c
       0.01393725 -0.0021841032 -0.067438014 0.0300613
000330 4f 3d 18 3d b7 7d 0a be 40 45 2b be 49 c4 e5 bd
       0.037167843 -0.13524519 -0.16725636 -0.11219079
000340 d6 40 1e 3c 05 3d 42 3d b4 05 af bd a0 62 85 be
       0.009659013 0.047421474 -0.0854601 -0.26051807
000350 74 32 5d be b7 c7 08 be 25 5a b9 bd 33 82 a5 3c
       -0.21601278 -0.13357435 -0.09050397 0.020203685
000360 7b 2f b2 3d 64 57 b2 bd d2 ca 68 3b be a0 fe 3c
       0.087004624 -0.08708075 0.003552128 0.031082507
000370 16 fe f8 bc dc d4 51 3d f6 5a 81 3d bc 3b 55 bd
       -0.030394595 0.05122839 0.063161775 -0.05205892
000380 6c cb 75 3c 66 09 00 3d 5b 49 f1 bc e9 24 b2 3c
       0.015002113 0.031258963 -0.029453924 0.021746116
000390 42 62 0f bd d7 58 2c 3a e6 42 09 bd 1a 35 4f 3d
       -0.035005815 0.00065745175 -0.033511065 0.05058775
0003a0 0e f0 ce bc 26 68 ea 3c 4b 7b 26 bd fb ca 44 bb
       -0.025260951 0.028614115 -0.040644925 -0.0030028212
0003b0 20 1e 85 3d 65 55 47 3d 17 10 15 bd ab 6d 47 bd
       0.064998865 0.048665423 -0.036392298 -0.048688572
0003c0 a0 4e 20 bc 76 66 e8 3c 3c f9 f4 3c 07 34 bd 3c
       -0.009784371 0.02836917 0.029904 0.023096098
0003d0 86 0d 78 bd 38 ed 83 bc c4 0b 33 3c 6e 47 ed 3c
       -0.060559772 -0.016104326 0.010928098 0.028964724
0003e0 74 96 54 bc b6 8c 34 bd 0b 83 25 3c f0 4a 98 3e
       -0.012975324 -0.044079505 0.010102044 0.29744673
0003f0 71 82 d1 3c d0 3f a0 3d 80 6b a0 3c 63 0d 7e 3d
       0.025574895 0.07824671 0.01958251 0.062024485

layer2.0.bias f4 [32]
000000 46 be bb bc dc 28 1a bd 59 22 60 3d 27 a8 c2 bb
       -0.022917878 -0.037636623 0.054720256 -0.0059404555
000010 cb b2 db 3c f3 e5 ed 3a 39 c0 a6 bd 9b c4 ba ba
       0.026818654 0.0018150195 -0.08142132 -0.0014249267
000020 37 59 10 3d fb 3e 6d bd c9 85 52 bd 11 71 99 3c
       0.035241332 -0.05792139 -0.05139712 0.018730672
000030 88 b4 46 3c 11 dd ab 3c f5 5b 32 bd 48 7f 31 bd
       0.012128003 0.020979436 -0.04354473 -0.043334275
000040 9d dc d3 3c cd 41 78 bd 14 b5 1d bd a5 57 d9 bc
       0.025862033 -0.060609628 -0.038502768 -0.02653105
000050 fd 6c 02 3d 54 34 28 bd a0 30 8f 3d da 6c 13 bd
       0.03184222 -0.04106553 0.06991696 -0.03599248
000060 13 03 4f bd 8c 1b 72 3c 57 2e 80 bc 34 ca a7 3c
       -0.05054004 0.0147770755 -0.015647097 0.02048216
000070 ba 4f 0a bd 1d 5c 85 3b 36 6b db 3c a2 f8 95 3c
       -0.03376744 0.0040698186 0.02678452 0.018307034

layer2.1.weight f4 [32]
000000 85 b0 92 3f 7f ee 69 3f 97 e7 c7 3f 15 c1 70 3f
       1.146012 0.9137954 1.5617551 0.9404462
000010 1f 12 64 3f de ac a8 3f 02 06 d2 3f 97 f5 ba 3f
       0.8909015 1.3177755 1.6408083 1.4606198
000020 ab 6d 6b 3f e3 64 ac 3f f7 5f fe 3f c6 98 bf 3f
       0.91964215 1.3468288 1.9873036 1.4968498
000030 b8 f1 99 3f d8 66 31 40 60 a8 d7 3f da af 96 3f
       1.2026892 2.771902 1.6848259 1.1772416
000040 6e 15 f6 3f 03 64 a2 3f 09 57 a1 3f 65 a2 a7 3f
       1.922529 1.2686771 1.2604686 1.3096434
000050 9e 2f a9 3f 54 31 5b 3f 40 7a a8 3f 2f ac 62 3f
       1.3217657 0.85622144 1.3162308 0.8854398
000060 9e e0 58 3f 6a 07 89 3f 25 23 83 3f e3 ea b0 3f
       0.8471774 1.0705388 1.02451 1.3821682
000070 4d f4 83 3f 59 c5 89 3f 65 95 80 3f 84 df 7f 3f
       1.030893 1.0763351 1.0045592 0.9995043

layer2.1.bias f4 [32]
000000 ad 34 45 be 1b 19 59 be bc 59 1f be 5b 42 71 be
       -0.19258375 -0.21200983 -0.15561575 -0.23560469
000010 8b 6c 0a be e3 6a b6 3c d0 1c 02 bc 03 36 0a be
       -0.13517968 0.022267764 -0.00794144 -0.13497166
000020 25 35 f7 bd 2b 10 c6 bd db 1a 4b bd 19 71 91 bd
       -0.120706834 -0.096710525 -0.04958616 -0.0710165
000030 a5 f7 70 bb 66 9a b7 bd de f9 81 3d 2d f5 e4 3d
       -0.0036768701 -0.08964996 0.063464865 0.11179576
000040 79 a0 5d 3d a4 0e cf ba 08 ce 0a be 7e ee 0f be
       0.054108117 -0.001579721 -0.13555157 -0.14055821
000050 c3 f7 df 3d 51 d8 4e be 0f 18 1b be 8a 6d 86 be
       0.10935929 -0.20199706 -0.15145896 -0.26255447
000060 1d da 22 be 68 05 aa 3d d2 15 48 be 2b 25 2c 3d
       -0.15903516 0.083018124 -0.19539574 0.042027634
000070 d6 3a af 3d 15 75 34 be 8e a3 9b be 6b 1a 1c be
       0.08556144 -0.17622788 -0.3039822 -0.15244453

layer2.1.running_mean f4 [32]
000000 1c 9b e7 be 42 fe 98 bf 65 81 5f bf 13 98 ce be
       -0.45235527 -1.1952593 -0.87306815 -0.40350398
000010 3c b7 ab 3f 97 eb 2f 3f 59 c8 2b bf ef 05 e2 be
       1.3415294 0.68718857 -0.6710258 -0.44145152
000020 b5 2e 55 3f e6 4d 5d 3e 97 82 94 3e c4 2a ad 3d
       0.83274394 0.21611747 0.29005882 0.084554225
000030 d6 d8 18 c0 8e 57 cb be 36 c1 a6 bd d9 bd 89 bf
       -2.3882346 -0.39715236 -0.08142321 -1.0761062
000040 83 65 93 3d 24 c3 81 bf 9c 1e be 3e bc e0 38 bf
       0.07197096 -1.0137677 0.37132728 -0.7221792
000050 d6 07 31 be df 54 03 bf 0e 55 30 3f 54 f3 81 3e
       -0.17288145 -0.5130138 0.68879783 0.25380957
000060 d0 37 d5 3f 3f 50 ca bf bb e2 2d 3f fc 34 33 bf
       1.6657658 -1.5805739 0.6792409 -0.7000272
000070 62 1f 83 bf ba f6 37 bf d5 e5 2b bf fd 72 55 3e
       -1.0243952 -0.7186085 -0.6714757 0.20844646

layer2.1.running_var f4 [32]
000000 ef c9 ba 40 72 09 bb 40 2f 63 c8 3f 84 da c3 40
       5.83715 5.844903 1.5655268 6.1204243
000010 4d 57 81 40 d3 32 8c 3e 31 88 19 3e 1f 16 9c 3f
       4.041907 0.27382526 0.14993359 1.2194251
000020 04 6e a4 3f f6 e0 8d 3e a6 32 df 3e 21 3d 74 3e
       1.2846074 0.27710694 0.4359333 0.23851444
000030 b5 82 81 3f 15 11 8c 3d bf 56 94 3d 00 c3 24 3f
       1.0118014 0.06839196 0.07243108 0.64360046
000040 3d 7e 24 3e 60 c4 c2 3e be 55 e3 3e be d8 61 3f
       0.16063781 0.38040447 0.44401354 0.8822135
000050 25 68 b8 3e 55 ec da 40 e9 36 d4 40 75 10 a5 40
       0.36016956 6.841349 6.631703 5.158259
000060 50 05 50 3f 01 11 93 3f 72 e6 75 3f 3e 0a 8f 3f
       0.81258106 1.1489564 0.96054757 1.1175001
000070 05 33 13 40 51 8d 04 3f 6f 5e 1d 40 46 ca cb 3f
       2.299989 0.5177813 2.4588888 1.5921104

fc.weight f4 [4, 1568]
000000 30 61 59 bc f7 8f 9a 3d c0 ea a1 bc a7 71 1e bd
       -0.0132678 0.0754699 -0.019765258 -0.038682606
000010 b4 8a b8 bb 08 8b 9d 3c a8 04 1e bd cc 99 09 bf
       -0.005631769 0.019231334 -0.03857866 -0.537503
000020 aa d9 dc be 54 37 8e 3c 9e 9c ea 3c ae 0c 36 3d
       -0.43134815 0.017360367 0.028639134 0.044445686
000030 74 e0 60 3d 8d 54 3d bc 0f f9 6f be d2 3c c1 bd
       0.054901555 -0.011555803 -0.23434852 -0.09435429
000040 93 f0 57 3d f9 70 1d 3d 4a 75 58 3d 1c b7 1d 3d
       0.052719664 0.038437817 0.05284623 0.038504705
000050 2a 87 09 3c 1b 4e a3 bd 2f 7a 21 3d 93 47 a1 3d
       0.008394042 -0.07973882 0.039423164 0.0787498
000060 7e 38 e7 3c 1e 9a d9 3c fb 31 48 3d c2 03 f6 3b
       0.02822518 0.026562747 0.04887579 0.007507772
000070 af 46 83 bd 3c af e3 3c ef 96 7f 3d 87 7e af 3c
       -0.06409966 0.02779352 0.0623998 0.021422638
000080 46 3b b7 3c 18 3e 4e 3d 21 d5 3f bc 74 4e 18 bc
       0.022367131 0.050352186 -0.011708529 -0.009296048
000090 79 b6 80 3d 5b d4 85 3d b2 e8 03 3d 81 cb 54 3d
       0.06284804 0.06534644 0.032204337 0.05195189
0000a0 22 c4 91 3d 60 36 17 3d 5d 5a 08 3d 3c 70 79 3d
       0.071174875 0.03691709 0.033289302 0.06089805
0000b0 a9 67 a2 3d 1b 93 60 3d f5 c9 9d 3d b2 74 89 3d
       0.07929928 0.05482779 0.07704536 0.06711711
0000c0 d3 7b 8f 3d fd f5 9e 3d 6d b5 ae bc 74 08 28 bd
       0.070060395 0.07761762 -0.021326745 -0.041023687
0000d0 58 72 2a bd e1 5b 44 bd ad 26 8a bd e0 88 03 bd
       -0.041612953 -0.047939185 -0.06745658 -0.032112956
0000e0 2b f0 9a bd 02 ca 9c bc 63 6f 9b 3c a3 02 bd 3b
       -0.0756534 -0.019139294 0.018974012 0.0057681366
0000f0 df 91 03 3b f7 53 cb 3b cb e7 97 3c 64 6c 9a bd
       0.002007596 0.0062050777 0.018543145 -0.07540205
000100 6f 77 b0 3c d5 dc 0a 3c d1 1c aa bc 25 71 01 bb
       0.021541325 0.008475502 -0.020765694 -0.0019751277
000110 ef 15 2e bc fa 0e 13 bc e4 3a 7a bd e0 b7 74 bc
       -0.010625347 -0.008975739 -0.06109132 -0.014936417
000120 12 ab 4d bc 67 e7 b6 bc 62 c3 70 bd 7c 64 88 bd
       -0.012552993 -0.022327138 -0.05878008 -0.06659791
000130 bf 68 63 3c e3 d1 ba bd 37 5d d2 bb 55 63 37 bd
       0.013879954 -0.09122064 -0.0064198035 -0.044772465
000140 01 7e b6 bd 5f 71 ba bd 22 0d 8a bd e0 5c f5 bc
       -0.08910752 -0.09103655 -0.06740786 -0.029951513
000150 90 06 fb bd ef a6 09 bd 04 79 a9 bd 45 88 19 be
       -0.12257111 -0.033606466 -0.08275035 -0.14993389
000160 a5 e4 2c be 0f f5 05 be aa dc d2 bd b1 1d 0e be
       -0.16884096 -0.13081764 -0.102959946 -0.13878514
000170 b8 ea 2a bd ba 5a b5 bd a3 f5 19 be 75 b8 78 be
       -0.04172775 -0.08855195 -0.15035109 -0.24289115
000180 85 9e 28 be 8f 4a 34 bd f7 f6 37 3e d8 33 bc bd
       -0.1646672 -0.044016417 0.17965303 -0.09189576
000190 dd 53 95 bd db c2 89 bd 07 c1 52 bd 52 e2 af bc
       -0.07291386 -0.06726619 -0.051453616 -0.021470223
0001a0 eb c7 20 bd f1 90 54 bd 26 cd 34 be a5 07 a7 bd
       -0.039253157 -0.05189604 -0.17656383 -0.08155755
0001b0 d1 82 0c bd 78 15 be bc 01 20 58 bd ba 18 2e 3d
       -0.034304444 -0.023203596 -0.052764896 0.04250405
0001c0 7a aa 54 bd dc 48 c6 bd aa e8 a6 bc cf a8 1d 3c
       -0.05192039 -0.096818656 -0.020374615 0.009622767
0001d0 97 a1 15 bd 20 bb 6e bd 85 70 93 3b 23 03 a0 3c
       -0.036531057 -0.058283925 0.0044994974 0.019532746
0001e0 b7 ab 23 bd bc 60 11 bd af ed b3 bc 76 c9 40 bd
       -0.039958682 -0.035492644 -0.021963922 -0.047067128
0001f0 4a aa ac bd 8c c1 54 ba 45 1c f0 3c 9f a2 9f ba
       -0.084309176 -0.0008115999 0.029310355 -0.0012179202
000200 58 46 b5 3b 50 47 2d 3b 11 87 12 bd 44 5d 91 bd
       0.0055320673 0.002644021 -0.03577334 -0.07097867
000210 b1 68 92 bb f4 59 9e 3b 7a 75 f7 bc bf da d3 bc
       -0.0044680466 0.0048325006 -0.030207384 -0.025861142
000220 41 4e 01 bd ac 6c fc bc 85 dc 5a bd e9 ec 2f 3d
       -0.03156877 -0.030813538 -0.05343296 0.042950545
000230 d1 ba f3 3b 87 91 d9 bc a1 6e ab bb a3 72 f0 bc
       0.0074380417 -0.02655865 -0.005231694 -0.029351538
000240 ea 37 41 bb 8b 91 3c 3d 7f 54 b4 bc 6d 0a 31 3c
       -0.002948279 0.046037238 -0.022012947 0.010805708
000250 ca f1 02 bd 1e 1e bb bc ed 07 07 bc c3 f7 c1 bc
       -0.03196887 -0.02284151 -0.008241636 -0.023677712
000260 16 34 ec bc 02 5a 45 bc 0c 91 16 be 9f dd e6 3c
       -0.02883343 -0.012045385 -0.14703768 0.028181849
000270 02 67 00 bd 84 7b 64 bb 2f 3e f6 bc 86 0d 4d bc
       -0.031348236 -0.003486366 -0.030058948 -0.012515431
000280 27 32 e1 bc d0 f3 e0 bd 7a 72 ae bc 0e cc 62 bc
       -0.027489735 -0.109840035 -0.021294821 -0.013842596
000290 55 48 12 bb 92 8f b0 3b 91 5c 07 bd 7b 87 59 bc
       -0.0022320945 0.0053882087 -0.033047263 -0.01327693
0002a0 08 27 00 be 72 b7 dd bc 58 f9 4c bc e1 f4 03 bb
       -0.12514889 -0.027065013 -0.01251062 -0.0020134973
0002b0 5a dc 14 bc d1 7f 21 bc 96 ee 5c 3c 04 aa 95 bd
       -0.009085739 -0.009857134 0.013484618 -0.073078185
0002c0 4a 03 d6 3a af 04 89 bd 6b 62 77 bd 5b ac 21 3a
       0.0016327885 -0.066903464 -0.060396593 0.00061673456
0002d0 93 63 d7 ba 26 e8 f1 bc 10 80 9b bd 55 03 d5 bc
       -0.0016432874 -0.029529642 -0.07592785 -0.026002565
0002e0 19 f5 35 bd 2d 72 42 bd 39 b2 10 bd e6 ac 3c bd
       -0.044423196 -0.047472168 -0.035326216 -0.046063326
0002f0 ab 21 79 bc 1d 92 88 bd c6 6f ab bc c0 61 37 bd
       -0.015205781 -0.06668494 -0.020927321 -0.044770956
000300 00 4c 0b bd 9f 6a 28 bd 33 9c db bc 41 06 ba bc
       -0.034008026 -0.041117307 -0.02680788 -0.02270806
000310 6b 74 64 bb e6 48 ba 3c 9c 28 bf bc a2 f3 e4 3b
       -0.003485943 0.022739839 -0.023334794 0.006987051
000320 e0 4a 4e 3c 34 c2 1b 3c 7e 74 30 3c 1b 88 b9 3c
       0.012591094 0.009506751 0.010769961 0.022647908
000330 c4 28 a0 bc 7a 9a 5e bd 95 69 2d bd 77 42 58 bd
       -0.019550689 -0.05434654 -0.04233702 -0.05279776
000340 7a 74 29 bd c4 1b 2a bd d4 d7 5a 3c ee 0b c4 bc
       -0.041370846 -0.041530386 0.0133571215 -0.02393147
000350 09 88 fc bc 06 2e 1d bd e8 ac 71 bd 32 8e 6c bd
       -0.030826585 -0.03837397 -0.059002787 -0.057752796
000360 fb 41 f2 bc a5 c7 4a bc 26 6e 06 bd bf 50 2f bd
       -0.029572478 -0.0123767005 -0.03281989 -0.042801615
000370 3f 20 29 bd 2f fd 40 bd 0e 0c 76 bc 2f 47 cb bc
       -0.041290518 -0.047116455 -0.0150175225 -0.024814216
000380 16 ff 28 3c 66 28 21 bd a3 b7 18 bd 0c a8 7e bd
       0.0103147235 -0.039345168 -0.037284505 -0.06217198
000390 b7 eb 4d bd 71 c8 03 bd 31 f0 85 bc 10 4d eb 3c
       -0.050273623 -0.032173578 -0.016349884 0.02872327
0003a0 67 ab 65 bd b6 e5 45 bd ab 48 ca bc 6d 1a 97 bc
       -0.056071665 -0.048314773 -0.024692854 -0.018445218
0003b0 1b 7a 83 bd d8 d0 ca bc 85 10 66 bc 5a 63 ad bc
       -0.06419774 -0.024757788 -0.0140420245 -0.021165539
0003c0 a0 30 73 bc db e8 bc bc 9f 0e 39 bd 5b fc 7d bd
       -0.014843136 -0.023060253 -0.04517996 -0.062008243
0003d0 a3 e7 96 bc 43 84 1f 3e be c1 9d 3e 29 32 b9 3d
       -0.018421 0.15577798 0.30811876 0.090427704
0003e0 db 5a a9 bc 0c 4e 14 bd 56 49 34 bc 89 3f 90 bc
       -0.020673206 -0.036207244 -0.011003813 -0.01760842
0003f0 f5 d4 f8 3d b8 63 58 3d 2d 9b f6 3c 14 a7 a4 3c
       0.12149993 0.052829474 0.03010329 0.0200992

fc.bias f4 [4]
000000 c9 43 e5 3b f1 2b e6 3d 59 87 e4 bd ac a1 c7 bc
       0.006996606 0.1123885 -0.11158628 -0.024369083
