UsefulClicker/py/model.ckpt (torch, 121077 bytes, 14 tensors)

layer1.0.weight f4 [16, 1, 5, 5]
0	0x3c7bd659	0.015370929
1	0x3d125e89	0.035734687
2	0x3dd39b39	0.10332341
3	0xbd3e5e74	-0.046476796
4	0x3e501975	0.20322211
5	0x3d91d699	0.071210094
6	0x3d94a710	0.07258427
7	0x3d9894b3	0.07450237
8	0x3d2b641c	0.04184352
9	0x3e10fa38	0.14157951
10	0xbcc40abf	-0.023930905
11	0xbd42c677	-0.047552552
12	0x3d534aea	0.051585115
13	0x3cf3f42d	0.029779518
14	0x3ce2e858	0.02769868
15	0x3cfbb2be	0.03072488
16	0x3dde5506	0.10856061
17	0xbbc15982	-0.0059005627
18	0xbe00c893	-0.12576513
19	0xbdd2300b	-0.1026307
20	0xbe80d319	-0.25161055
21	0xbe1942d0	-0.14966893
22	0xbdd9b73e	-0.10630654
23	0xbd932ec7	-0.071866564
24	0x3dd4b1c8	0.103854716
25	0xbdc21dd6	-0.09478347
26	0xbd93454f	-0.07190954
27	0x3de4fd82	0.11181165
28	0x3dc6c0a2	0.097047105
29	0x3e033927	0.1281477
30	0x3e11cb84	0.14237791
31	0xbd3f9a70	-0.046778142
32	0xbdd09f23	-0.10186603
33	0xbc605c0d	-0.013693822
34	0xbc726c48	-0.014796324
35	0xbdeae4b0	-0.114694
36	0xbbce8f4a	-0.0063037025
37	0xbdf97b60	-0.12181735
38	0x3dc28785	0.094985045
39	0xbd241b78	-0.04006526
40	0xbe357d5e	-0.17723605
41	0xbc79ed7a	-0.015254373
42	0xbe6ccce2	-0.23125032
43	0xbe14c971	-0.14529969
44	0x3e056d89	0.13030066
45	0x3e18254b	0.14857976
46	0xbcb0d206	-0.021584522
47	0x3e2ba553	0.16762285
48	0xbe0905fc	-0.13381189
49	0xbdc7262d	-0.09724078
50	0xbe82ed41	-0.25571635
51	0x3d3508c0	0.044197798
52	0xbcf6f4f2	-0.030146096
53	0x3dcc86c2	0.099866405
54	0xbe54393f	-0.20724963
55	0xbe804de5	-0.2505943
56	0x3d9dce64	0.077053815
57	0xbd016389	-0.031589065
58	0xbe062f64	-0.13104016
59	0x3cf295de	0.029612478
60	0x3c8d545d	0.017252142
61	0x3e57ebda	0.21086064
62	0x3c98572b	0.018596252
63	0xbc679ff5	-0.014137258
64	0xbd91d25c	-0.07120201
65	0x3de96a5b	0.11397239
66	0x3def01d1	0.11670268
67	0xbe4745c8	-0.19460213
68	0x3dd171a9	0.10226757
69	0x3d9e8c52	0.07741608
70	0xbe4a5b7f	-0.19761465
71	0x3e14cb3c	0.14530653
72	0xbcd20802	-0.025638584
73	0x3c8e0a85	0.017339
74	0xbbbea1d8	-0.005817633
75	0x3de689c9	0.11256749
76	0x3cfd39e3	0.030911392
77	0xbdb94c2e	-0.09047733
78	0x3de48f2f	0.111601226
79	0x3cca5e84	0.024703272
80	0xbd8e3477	-0.069436006
81	0xbd081a4c	-0.033228204
82	0xbe26a927	-0.16275464
83	0xbe55bbdc	-0.20872444
84	0xbd7cbe4c	-0.06170492
85	0xbded1940	-0.11577082
86	0xbe4302b4	-0.19044
87	0x3b0971f7	0.002097247
88	0xbdab7de1	-0.08373619
89	0xbd15d5a8	-0.03658071
90	0xbd65bec0	-0.056090117
91	0xbc3dd58d	-0.011586559
92	0xbda77724	-0.08177021
93	0xbc725abf	-0.014792143
94	0x3e56fa5e	0.20993945
95	0xbdb16b82	-0.086630836
96	0xbe28ccf8	-0.1648444
97	0x3e1bca3f	0.1521387
98	0x3e3e1ca0	0.18565607
99	0x3d994222	0.07483317
100	0xbe2c341d	-0.16816755
101	0xbd19023c	-0.037355646
102	0xbe54e5cf	-0.2079079
103	0x3de2d680	0.11076069
104	0xbb85ddcf	-0.0040852795
105	0x3d4289e2	0.047494777
106	0xbdef43ba	-0.1168284
107	0xbda8efb4	-0.08248845
108	0x3de389e2	0.111102834
109	0x3df8ca01	0.12147904
110	0xbd64d453	-0.05586655
111	0xbde5af5b	-0.11215087
112	0xbdb2133b	-0.08695074
113	0x3e384e0f	0.17998527
114	0x3d226511	0.039647166
115	0xbd6ccc28	-0.057811886
116	0xbd3794f4	-0.044819787
117	0x3c0ed973	0.008718836
118	0x3d23763f	0.03990769
119	0x3e54826b	0.20752876
120	0xbe8290fa	-0.25501233
121	0xbde63034	-0.11239663
122	0xbdea7af4	-0.11449233
123	0x3e24fa01	0.16110994
124	0xbd70b308	-0.058764488
125	0x3df03dc4	0.11730531
126	0xbd32b6d2	-0.043631382
127	0xbd9aff05	-0.07568172
128	0x3dc70c58	0.09719151
129	0x3dca2c08	0.098716795
130	0x3dab6d30	0.08370435
131	0x3b7f4a67	0.003895426
132	0x3e225d17	0.15855823
133	0x3c07720a	0.008266935
134	0x3e28bfcc	0.16479415
135	0x3dd1b3a3	0.10239341
136	0x3de2f55d	0.110819556
137	0x3db77b0c	0.08959016
138	0x3e01b385	0.12666138
139	0xbd866965	-0.06563071
140	0xbbccbb6b	-0.006247928
141	0xbdb2eba8	-0.08736354
142	0xbe09757a	-0.1342372
143	0xbd96b6f0	-0.07359111
144	0x3dc99c54	0.0984427
145	0xbe0c2400	-0.13685608
146	0xbe71f1b6	-0.23627362
147	0xbe329c2c	-0.17442387
148	0xbe158be3	-0.14604144
149	0xbe6d0b27	-0.23148786
150	0x3d0f4b4e	0.034983926
151	0xbd384669	-0.044989023
152	0xbe072b6e	-0.13200161
153	0x3e0128bb	0.12613194
154	0x3e008de1	0.12554123
155	0xbe57bb27	-0.21067487
156	0xbceb78a8	-0.028744057
157	0x392ec10b	0.00016665847
158	0x3e36d0e0	0.17853117
159	0x3cff04a5	0.031130144
160	0xbe10198a	-0.14072242
161	0x3e07a911	0.13248087
162	0x3e6bd842	0.23031715
163	0x3d944840	0.07240343
164	0xbe386ba8	-0.18009818
165	0x3e197b1e	0.14988372
166	0x3d30d9af	0.04317635
167	0xbc96ba04	-0.018399246
168	0x3d0a40d9	0.03375325
169	0x3ded8ccd	0.11599121
170	0xbc86e19e	-0.016465005
171	0x3db12a13	0.08650603
172	0xbd792bf1	-0.06083292
173	0x3d61b7d3	0.05510695
174	0x3e303e90	0.17211366
175	0xbc24b24d	-0.010052276
176	0x3e011b21	0.12608005
177	0x3be5e5e0	0.0070159286
178	0x3d6dedf2	0.05808825
179	0xbdcb34fc	-0.09922215
180	0xbdde44e9	-0.10852987
181	0xbdc3c559	-0.095591255
182	0x3e29da1e	0.16587111
183	0x3e5e322f	0.21698831
184	0x3df0de4e	0.11761151
185	0x3d98af75	0.07455341
186	0xbe651a3d	-0.2237329
187	0xbe2c3ec9	-0.16820826
188	0xbcd6a3a4	-0.026201077
189	0x3d8c4d9d	0.06850741
190	0xbd903d72	-0.0704297
191	0xbe198983	-0.14993863
192	0xb92c1576	-0.00016411193
193	0xbbf485de	-0.0074622473
194	0x3d9cb70a	0.076520994
195	0x3e953fa1	0.29150108
196	0xbdac3ff4	-0.084106356
197	0xbe20bd30	-0.1569717
198	0xbd1717ff	-0.03688812
199	0x3c37baaa	0.011213938
200	0x3d579d92	0.052640505
201	0x3e1a2e49	0.15056719
202	0xbe1a9904	-0.15097433
203	0xbc5473ea	-0.012967089
204	0x3e017252	0.12641266
205	0xbdea50c7	-0.11441188
206	0x3e6a3357	0.22871147
207	0xbda7afdb	-0.08187839
208	0xbe657c4f	-0.22410701
209	0x3daa4ca6	0.08315401
210	0xbe34eb4e	-0.17667887
211	0x3e6e4874	0.23269826
212	0xbce1af50	-0.027549416
213	0xbd3076ff	-0.043082234
214	0xbc104ea8	-0.008807816
215	0xbdf8c00f	-0.12146007
216	0x3e1c8e56	0.15288672
217	0xbde97f81	-0.114012726
218	0x3d89c5bd	0.06727169
219	0x3ddc3ad6	0.107534096
220	0x3a91b70c	0.0011117174
221	0xbb3f3d5c	-0.002918086
222	0x3dff6006	0.12469487
223	0xbc9d3ac2	-0.019193057
224	0xbe435dfb	-0.1907882
225	0xbc9fdf71	-0.019515725
226	0xbe422035	-0.18957599
227	0xbe064245	-0.13111217
228	0xbdafe054	-0.08587709
229	0x3e06cbfd	0.13163753
230	0xbd6c6b01	-0.057719234
231	0xbe3c9ef3	-0.1842001
232	0x3e1c85a1	0.1528535
233	0x3d61503d	0.05500816
234	0xbc336d39	-0.010951334
235	0x3d898595	0.06714932
236	0xbc0d4180	-0.008621573
237	0x3dfa0f2d	0.12209926
238	0x3c83367b	0.01601719
239	0x3dd82589	0.10554034
240	0x3e3141ec	0.17310303
241	0x3e83e500	0.2576065
242	0x3d62b273	0.055345964
243	0xbb99d298	-0.004694294
244	0xbe653274	-0.22382528
245	0xbe096f89	-0.13421454
246	0xbe1fc239	-0.15601434
247	0xbdb5889e	-0.08863948
248	0xbe15bf4e	-0.14623758
249	0x3d5af4bb	0.05345605
250	0x3e3f8923	0.18704657
251	0xbd364598	-0.044499964
252	0x3e12aa4a	0.14322773
253	0xbe37eeae	-0.17962143
254	0xbda7b551	-0.0818888
255	0xbae84ed1	-0.0017723684

layer1.0.bias f4 [16]
0	0x3e16329d	0.14667745
1	0xbe31e664	-0.17373043
2	0xbdae58d5	-0.08513037
3	0xbd42149c	-0.047382936
4	0x3e81c5b7	0.25346157
5	0xbcdf2132	-0.027237508
6	0xbe42827a	-0.18995085
7	0x3e3ca3cc	0.18421859
8	0x3c4b8276	0.012421241
9	0x3d9eed95	0.07760159
10	0x3e130ce3	0.14360385
11	0x3dafa98e	0.08577262
12	0xbde6cce5	-0.11269549
13	0x3e07db78	0.13267314
14	0x3e59e65b	0.2127928
15	0xbe04477d	-0.12917896

layer1.1.weight f4 [16]
0	0x3f4ead5b	0.8073327
1	0x3f8730f0	1.056181
2	0x3f62333f	0.88359445
3	0x3f92cb5f	1.1468314
4	0x3f8f4c90	1.119524
5	0x3f6a8f71	0.91625124
6	0x3f3c1cbd	0.7348135
7	0x3f8963e3	1.0733608
8	0x3f5dc309	0.86625725
9	0x3f81b050	1.0131931
10	0x3f474baf	0.7784986
11	0x3f933cd9	1.1502944
12	0x3f8ea9c1	1.1145555
13	0x3f711608	0.9417424
14	0x3f6b5d2f	0.9193906
15	0x3f986fd3	1.1909126

layer1.1.bias f4 [16]
0	0xbe891332	-0.26772457
1	0xbddf206e	-0.10894857
2	0xbde8fb0c	-0.113760084
3	0xbe2aa737	-0.1666535
4	0xbd153791	-0.036429945
5	0xbda3786b	-0.07981952
6	0xbe90ea0e	-0.2830357
7	0xbe23961a	-0.15975228
8	0xbeaa0b4b	-0.3321174
9	0xbdbacb11	-0.09120763
10	0xbece615b	-0.4030865
11	0xbe2cf160	-0.16888952
12	0xbde1b257	-0.11020344
13	0xbe6a1a9b	-0.22861712
14	0xbe882d98	-0.26597285
15	0xbdf51452	-0.119667664

layer1.1.running_mean f4 [16]
0	0x3e302024	0.1719976
1	0xbe68a0d4	-0.22717601
2	0xbe01e4ba	-0.12684909
3	0xbdfac015	-0.12243668
4	0x3e3c52df	0.18390988
5	0xbd366966	-0.04453411
6	0xbdbf3915	-0.093370594
7	0x3e3ab8f7	0.18234621
8	0x3c61d3b6	0.013783386
9	0x3d4f6f40	0.050643206
10	0x3e57594d	0.2103016
11	0x3cfcd532	0.030863378
12	0xbe237ecd	-0.1596634
13	0x3dc6822f	0.09692799
14	0x3e4962ce	0.19666597
15	0xbe5de5b9	-0.21669663

layer1.1.running_var f4 [16]
0	0x3d0190f6	0.031632386
1	0x3ca90012	0.020629916
2	0x3c8fdc54	0.017561115
3	0x3d7bd1c8	0.06147936
4	0x3d8e9364	0.06961706
5	0x3d6fa50f	0.05850702
6	0x3d48f848	0.049064904
7	0x3c935e6e	0.017989364
8	0x3bec3f17	0.0072096693
9	0x3cb02172	0.021500323
10	0x3cbeaebb	0.023276677
11	0x3d2c1bfa	0.042018868
12	0x3d311500	0.043232918
13	0x3cbad454	0.022806324
14	0x3c7e585d	0.015523997
15	0x3d49f73a	0.04930804

layer2.0.weight f4 [32, 16, 5, 5]
0	0x3d56d6e8	0.052451044
1	0x389baa08	7.422647e-05
2	0xbbe470c7	-0.006971452
3	0xbd0c9c63	-0.03432883
4	0x3c357939	0.011076265
5	0x3caf3b13	0.021390473
6	0xbc066ecf	-0.00820513
7	0x3cc5e886	0.024158727
8	0xbd430763	-0.047614466
9	0xbc5275c8	-0.012845464
10	0x3d091d58	0.03347525
11	0xbc59354b	-0.013257335
12	0x3c899969	0.016796784
13	0xbd710824	-0.058845654
14	0xbcad2b6d	-0.021138871
15	0xbba96a68	-0.0051701553
16	0xbd6a56d5	-0.057211716
17	0xbd81bd3c	-0.06334922
18	0xbc69db76	-0.014273515
19	0x3d3632f3	0.044482183
20	0x3ca00dbd	0.0195378
21	0xbbf66095	-0.0075188377
22	0xbcfc2bda	-0.030782629
23	0x3d576e95	0.052595694
24	0x3d5b593e	0.053551905
25	0xbc3c14b8	-0.011479549
26	0xbceafed9	-0.028685974
27	0xbe5dbe86	-0.2165471
28	0xbe11ef45	-0.1425143
29	0xbd6e6ac1	-0.058207277
30	0xbc93c670	-0.018038958
31	0xbcf61c2f	-0.030042736
32	0xbd1e7995	-0.03869017
33	0xbce67380	-0.028131247
34	0x3b6ef26e	0.0036460417
35	0xbc3dd547	-0.011586494
36	0xbcbbf049	-0.022941725
37	0xbd160d24	-0.036633626
38	0x3ca11dc2	0.01966751
39	0x3dca1974	0.09868136
40	0x3c0927c1	0.0083712945
41	0xba1cb509	-0.0005977904
42	0x3d861f30	0.06548917
43	0x3d0ebbfd	0.03484725
44	0x3cddc8f0	0.027073354
45	0x3d260630	0.040533245
46	0xbca71a3c	-0.020398252
47	0x3daf53c0	0.08560896
48	0x3d8aa303	0.06769373
49	0xbbcf0253	-0.0063174157
50	0xbbb433d7	-0.005499344
51	0x3d486116	0.048920713
52	0x3ca0c769	0.019626336
53	0x3cae903d	0.021309013
54	0x3c80b87c	0.015712969
55	0x3c3a1706	0.011358028
56	0xbc2829da	-0.010263884
57	0xbc0fec3d	-0.008784351
58	0x3d36eb57	0.04465803
59	0x3c42015b	0.0118411435
60	0x3cf166d4	0.029467978
61	0x3c90b9f5	0.017666796
62	0xbbe14f3a	-0.0068758996
63	0x3c8511f4	0.016243912
64	0x3c7e5dca	0.015525291
65	0x3d9bd50e	0.07608996
66	0xbca6b52f	-0.020350067
67	0x3cdab8c0	0.026699424
68	0x3c3111d7	0.010807476
69	0x3cda031b	0.026612809
70	0x3ce89156	0.028389614
71	0xbd88a48c	-0.0667201
72	0xbb7f5e42	-0.0038966094
73	0xbd3d92df	-0.046282645
74	0x3d9a4951	0.07533515
75	0x3a14b30a	0.0005672431
76	0x3ce43d17	0.027861161
77	0x3c85158f	0.016245632
78	0x3cf292cb	0.029611012
79	0xbda25a47	-0.07927375
80	0x3d407b4c	0.046992585
81	0x3c9eb97c	0.019375555
82	0xbd4b8b69	-0.0496935
83	0xbd5b3b11	-0.053523127
84	0xbd046645	-0.032324094
85	0x3b3365b2	0.0027373848
86	0xbd0a58e0	-0.033776164
87	0xbd5ce539	-0.05392954
88	0xbdcc0238	-0.09961361
89	0x3d343f04	0.04400541
90	0xbc19274d	-0.009347749
91	0xbd5f045d	-0.05444752
92	0xbe005671	-0.12532975
93	0xbde9ba15	-0.114124455
94	0xbdbc7eb4	-0.09203854
95	0xba818077	-0.0009880204
96	0xbd19985f	-0.037498828
97	0xbd5ebd3e	-0.054379694
98	0x3b889b34	0.0041688923
99	0xbe04ac99	-0.12956466
100	0xbd251ca0	-0.040310502
101	0x3d56f32b	0.052477997
102	0x3de70515	0.11280266
103	0x3d6fe2da	0.058565952
104	0xbdaa8528	-0.08326179
105	0xbc09ba99	-0.008406305
106	0x3d5c72ec	0.053820536
107	0x3d1c5253	0.038164448
108	0xba96d41b	-0.0011507304
109	0x3caef779	0.021358239
110	0x3d8f6ac2	0.07002784
111	0x3d7347ce	0.05939465
112	0x3da949b3	0.0826601
113	0xbddde680	-0.1083498
114	0xbd7ab19c	-0.061204538
115	0x3c79fad4	0.015257556
116	0x3e16f63e	0.14742371
117	0x3cbcb82b	0.023037037
118	0xbe0f6e38	-0.14006889
119	0xbde2679d	-0.11054919
120	0xbcfd2c75	-0.030904988
121	0x3d40c82a	0.04706589
122	0x3d6e1ad7	0.058131065
123	0xbd4b1207	-0.04957774
124	0xbda566dd	-0.0807626
125	0x3c029f7c	0.007972594
126	0x3bde5ba0	0.006785825
127	0x3ae32103	0.0017328564
128	0x3d897f7a	0.06713767
129	0x3d1a86d9	0.037726257
130	0xbc03d2b3	-0.00804584
131	0xbc4c55e2	-0.012471648
132	0xbd8eaa1c	-0.069660395
133	0xbc026359	-0.007958257
134	0xbb12efd1	-0.0022420774
135	0x3d365d1b	0.044522386
136	0xbc9d4c55	-0.019201437
137	0xbd59c00b	-0.053161662
138	0xbc799881	-0.015234114
139	0xbcd7f3f7	-0.026361449
140	0xbd89ff0f	-0.06738102
141	0xbcea5e04	-0.028609283
142	0xbb0e1f15	-0.0021686007
143	0x3d1530e1	0.036423568
144	0x3cbf4bc9	0.023351567
145	0xbd71b02a	-0.059005894
146	0x3d4aefb7	0.049545016
147	0xbc9ea8b1	-0.019367548
148	0xbc15b76f	-0.009137972
149	0x3c9cc74e	0.019138005
150	0x3a9ca0a8	0.0011949735
151	0x3cf38590	0.029726774
152	0x3d916506	0.07099347
153	0x3d316a29	0.043314133
154	0x3ae6bb40	0.0017603412
155	0xbc941fe5	-0.018081615
156	0xbae1f3e6	-0.0017238825
157	0x3daa0526	0.08301763
158	0xbb7be430	-0.003843557
159	0xbcb7bda8	-0.022429302
160	0x3d3f35d2	0.046682186
161	0xbb350c58	-0.0027625766
162	0x3d6f4fee	0.058425836
163	0xbd89236f	-0.066962115
164	0xbc682b86	-0.014170533
165	0x3cfc250d	0.030779386
166	0xbd503fa4	-0.050841942
167	0x3c03524b	0.008015226
168	0xbd86da60	-0.065846205
169	0xbae22fdc	-0.0017256695
170	0x3d457a0b	0.048212092
171	0xbd101cb3	-0.03518362
172	0xbd398212	-0.04529006
173	0xbbfafdc3	-0.0076596453
174	0xbbfdd1e9	-0.0077459705
175	0xbd70ff03	-0.058836948
176	0xbd281479	-0.04103515
177	0xbd36b0a7	-0.044602063
178	0xbdf01faa	-0.117247894
179	0x3c1f5a68	0.009726144
180	0x3cf27dff	0.029601095
181	0xbd3b2433	-0.04568882
182	0xbdaafd8b	-0.08349141
183	0xbd8b6168	-0.06805688
184	0xbc1eee1e	-0.009700326
185	0x3d0d6321	0.034518365
186	0x3d9c5b1b	0.076345645
187	0x3d93c26e	0.07214819
188	0xba66bf48	-0.0008802307
189	0x3cdfac37	0.027303798
190	0x3d1e2865	0.038612742
191	0x3b428821	0.002968319
192	0x3b452582	0.003008217
193	0x3d831800	0.06401062
194	0xbba22733	-0.0049485206
195	0x3c0da800	0.008646011
196	0xbcfceac0	-0.030873656
197	0xbc168638	-0.009187274
198	0x3d0cf58e	0.034413867
199	0x3d50fc66	0.051021956
200	0xbd1bf0bc	-0.03807138
201	0xbbbaf3bf	-0.0057053263
202	0x3cfbb938	0.030727968
203	0x3c8640b4	0.016388275
204	0xbcd187e1	-0.025577487
205	0x3d2d3225	0.04228415
206	0xbc69545a	-0.014241302
207	0x3b80880a	0.003922467
208	0x3d84bcd7	0.06481331
209	0x3d19deda	0.037566043
210	0xbd2088f0	-0.039193094
211	0xbcf1cab1	-0.029515596
212	0x3bbf09c2	0.0058300206
213	0x3d900956	0.07033031
214	0xba81c56d	-0.0009900756
215	0xbc4f8602	-0.012666227
216	0x3c8a6d37	0.01689778
217	0x3d04200f	0.032257136
218	0x3bd2f7c0	0.0064382255
219	0xbd507cfd	-0.050900448
220	0xbc35c8d3	-0.0110952435
221	0xbd8306d9	-0.063977905
222	0xbd1c934d	-0.038226414
223	0x3ce921b7	0.02845846
224	0xba90268d	-0.0010997817
225	0x3dd98655	0.10621325
226	0x3d94d807	0.072677664
227	0x3d04a0ac	0.03237979
228	0x3d13bbae	0.036067657
229	0x3d1acfee	0.037795953
230	0x3d8143e8	0.0631178
231	0xbc77587d	-0.015096781
232	0xbc90f33a	-0.017694104
233	0x3d778ad5	0.060435135
234	0x3d5424b5	0.05179282
235	0x3c24626a	0.010033229
236	0xbd960a3f	-0.07326173
237	0xbd810ec1	-0.06301642
238	0xbd9d4b50	-0.0768038
239	0x3d580215	0.05273636
240	0xbb1006d4	-0.0021976726
241	0xbdd9e0d7	-0.10638588
242	0xbdc513f6	-0.09622948
243	0xbcfd46fe	-0.03091764
244	0x3dde3257	0.10849445
245	0x3ce089dd	0.027409488
246	0xbd2abcb1	-0.041683856
247	0xbc91baca	-0.017789263
248	0xbce16bf6	-0.0275173
249	0x3cf0645f	0.029344736
250	0xbcce6b59	-0.025197672
251	0xbd16284c	-0.036659524
252	0xbcb925db	-0.022601059
253	0x3cb71f8b	0.022353908
254	0x3bb859dd	0.005625947
255	0x3d806913	0.06270041

layer2.0.bias f4 [32]
0	0x3cf08fb4	0.029365398
1	0xbdacb836	-0.08433573
2	0x3c61a227	0.01377157
3	0xbbaa4009	-0.005195622
4	0xbc64b96b	-0.013960223
5	0x3a469002	0.00075745594
6	0xbda2c88c	-0.079484075
7	0xbc8fb0f2	-0.017540429
8	0x3be477ff	0.0069723125
9	0xbcee0976	-0.029057246
10	0xbbe0a025	-0.006855028
11	0xbd875c93	-0.06609454
12	0x3caf87d5	0.021427074
13	0xbd561216	-0.05226334
14	0xbc1693f6	-0.00919055
15	0xbd260985	-0.040536422
16	0xbd354f2b	-0.044264954
17	0x3cca4292	0.024689946
18	0x3c82c535	0.015963176
19	0xbd844aa7	-0.06459551
20	0x3b0dd99f	0.0021644605
21	0x3cc0c636	0.023532014
22	0x3db2607b	0.087098084
23	0x3d36441d	0.04449855
24	0xbe0783a8	-0.13233817
25	0x3d0e20bf	0.034699198
26	0x3da4ce05	0.080471076
27	0xbbbf8074	-0.00584417
28	0xbccf60da	-0.025314737
29	0xbdaeeec0	-0.08541632
30	0x3c619c0e	0.0137701165
31	0xbc7b7980	-0.015348792

layer2.1.weight f4 [32]
0	0x3f986197	1.1904782
1	0x3f974064	1.1816525
2	0x3f9a5988	1.2058573
3	0x3f8df98e	1.1091783
4	0x3f92053f	1.1407851
5	0x3f9a6020	1.2060585
6	0x3f8e203e	1.110359
7	0x3fa09113	1.2544273
8	0x3f910d79	1.1332237
9	0x3f94c517	1.1622647
10	0x3f8f3a03	1.1189579
11	0x3f8c2464	1.0948606
12	0x3f95e2f0	1.1709881
13	0x3f969d16	1.1766689
14	0x3f8985da	1.0743973
15	0x3f897b84	1.0740819
16	0x3f8d294d	1.1028229
17	0x3f843a6c	1.0330329
18	0x3f8c1bf8	1.0946035
19	0x3f89e4ca	1.0772946
20	0x3f9410d6	1.1567638
21	0x3f935c12	1.1512473
22	0x3f90930d	1.1294876
23	0x3f872240	1.0557327
24	0x3f97290a	1.1809399
25	0x3f896707	1.0734566
26	0x3f8f92fc	1.1216731
27	0x3f91be47	1.1386193
28	0x3f92dda2	1.1473887
29	0x3f98a452	1.1925147
30	0x3f97a462	1.1847041
31	0x3f8a7d68	1.0819521

layer2.1.bias f4 [32]
0	0xbe46fe1d	-0.19432874
1	0xbdb83cb1	-0.08995951
2	0xbd993f3f	-0.07482766
3	0xbdc1be41	-0.09460116
4	0xbdf9717b	-0.12179848
5	0xbd7bbf02	-0.061461456
6	0xbe5b8f45	-0.21441372
7	0xbe0fd06d	-0.14044352
8	0xbde3c9e9	-0.11122496
9	0xbdea2394	-0.11432567
10	0xbde725a2	-0.11286475
11	0xbda69e75	-0.08135692
12	0xbdb276bb	-0.08714052
13	0xbdb9a712	-0.09065069
14	0xbe22fac0	-0.15915966
15	0xbddca673	-0.10773935
16	0xbdf8ae99	-0.12142677
17	0xbe3b3f88	-0.18285954
18	0xbe189f75	-0.14904578
19	0xbe12d5d7	-0.14339386
20	0xbe2e38ba	-0.17013827
21	0xbe1c65c9	-0.15273203
22	0xbe0adc7f	-0.13560675
23	0xbe419b20	-0.18906832
24	0xbd90b1ab	-0.070651375
25	0xbe56b854	-0.20968753
26	0xbe5a4cbb	-0.21318333
27	0xbe078841	-0.1323557
28	0xbd9e2f95	-0.07723919
29	0xbde82f51	-0.1133715
30	0xbdbd9daf	-0.092585914
31	0xbe719103	-0.23590474

layer2.1.running_mean f4 [32]
0	0xbeab51b4	-0.33460772
1	0x3e4d7b41	0.20066549
2	0x3e245daf	0.16051362
3	0xbf1772e9	-0.59159714
4	0xbd35ac8e	-0.044354014
5	0xbc2d836e	-0.010590417
6	0xbf27f64c	-0.65610194
7	0x3e63fe51	0.22264983
8	0x3ebb622d	0.3659834
9	0x3b89115b	0.004182977
10	0x3e6ca81d	0.23111005
11	0xbce7d4f9	-0.028299795
12	0x3e877b56	0.26461285
13	0xbf0daabd	-0.5533865
14	0xbef7536f	-0.48305842
15	0x3e8d9561	0.2765303
16	0x3f18c746	0.5967907
17	0xbee3f2b8	-0.44521117
18	0x3f226e86	0.63449895
19	0xbe0427e7	-0.12905847
20	0xbf0d837e	-0.55278766
21	0xbf2b2490	-0.66852665
22	0xbe73bc15	-0.23802216
23	0xbd579932	-0.052636333
24	0xbef37b9e	-0.4755525
25	0xbe52d4fe	-0.20589063
26	0x3f2a5880	0.6654129
27	0x3e629953	0.22128801
28	0xbe8ef751	-0.27923062
29	0xbf0112ee	-0.5041951
30	0xbea263c2	-0.31716734
31	0xbeaab8ac	-0.33344018

layer2.1.running_var f4 [32]
0	0x3f877f9d	1.058582
1	0x3fd0cd86	1.6312721
2	0x3f87c41a	1.060672
3	0x3fb3212d	1.39945
4	0x3fa52472	1.2901747
5	0x3fa000a8	1.25002
6	0x3f651dc8	0.8949857
7	0x3fa7385a	1.3064072
8	0x3f690d2f	0.9103574
9	0x3f4251ca	0.7590605
10	0x3f41deac	0.75730395
11	0x3f47ef56	0.7809957
12	0x3fbd1b0d	1.477388
13	0x3f4cc05b	0.7998101
14	0x3f980fae	1.1879785
15	0x3f82c60b	1.0216688
16	0x3f927c7a	1.1444237
17	0x3fbaa47a	1.4581444
18	0x3f860399	1.0469848
19	0x3f4a6154	0.7905476
20	0x3ff38a4c	1.902658
21	0x3f7a7ec3	0.97849673
22	0x3f27567a	0.6536633
23	0x3f81c1a5	1.0137221
24	0x3fef2aa0	1.8684883
25	0x3f84d92b	1.0378774
26	0x3f817d13	1.0116295
27	0x3f6acddf	0.91720384
28	0x3fbe0873	1.4846328
29	0x3f805759	1.0026656
30	0x3f459786	0.7718433
31	0x3f992230	1.1963558

fc.weight f4 [10, 1568]
0	0x3bcba0bc	0.0062142294
1	0xbd0e758c	-0.03478007
2	0x3c22765e	0.009915916
3	0xbc5d0c34	-0.013491679
4	0xbbd2b181	-0.0064298515
5	0x3c2656b2	0.010152506
6	0x3ae33b0e	0.0017336325
7	0xbc429f7b	-0.011878843
8	0x3a861f5c	0.0010232734
9	0xbb6cb2fd	-0.0036117428
10	0xbba8b023	-0.0051479503
11	0xbcf69124	-0.030098505
12	0x3d13a024	0.036041394
13	0xbd236b8d	-0.03989749
14	0xbcf75d88	-0.030195966
15	0x3d49e6cf	0.04929238
16	0xbad3e646	-0.0016166649
17	0xbd0c6a20	-0.034280896
18	0xbd8a13fe	-0.067420945
19	0x3d7ee54d	0.062230397
20	0xbd89b02d	-0.06723056
21	0xbb290025	-0.002578744
22	0x3bf56acd	0.0074895383
23	0x3d71470e	0.058905654
24	0xbd12d4df	-0.03584754
25	0x39d26106	0.0004012661
26	0x3cdb5a05	0.026776323
27	0xbd1119db	-0.03542505
28	0x3ba9c987	0.0051814946
29	0x3d5aa704	0.053381935
30	0x3d2d6b7a	0.042338826
31	0xbd917e39	-0.07104153
32	0x3b6afecc	0.0035857437
33	0x3b1d6ae8	0.002402002
34	0x3b8fd451	0.0043893238
35	0x3db5f709	0.08885009
36	0x3d1ad42e	0.037800007
37	0x3ce7d9f2	0.028302167
38	0xbcc320d3	-0.023819363
39	0xbd4d0737	-0.05005571
40	0xbd0a689d	-0.033791173
41	0x3c53fe43	0.012939039
42	0x3c8e837c	0.017396681
43	0xb9261ef1	-0.0001584252
44	0xbcf40a2f	-0.029790012
45	0xbc78fe62	-0.015197368
46	0xbc979d55	-0.018507639
47	0x3d0d9c3a	0.034572817
48	0x3ba367a6	0.004986721
49	0xbc8f0efa	-0.017463196
50	0x3cacfad2	0.021115694
51	0xbb9e1238	-0.004823949
52	0xbbc4c7a7	-0.0060052457
53	0x3ae8bc82	0.0017756375
54	0x3ca17f5c	0.01971405
55	0x3c894082	0.016754393
56	0xbc820f02	-0.015876297
57	0x3d34fff5	0.044189412
58	0x3d19802d	0.037475754
59	0x3d278e65	0.040907282
60	0x3d239bb4	0.039943412
61	0x3d62db30	0.055384815
62	0xbca1d673	-0.019755578
63	0xbce425e9	-0.027850108
64	0xbd58af50	-0.052901566
65	0x3c618bba	0.013766224
66	0xbd4dba06	-0.050226234
67	0xbe05a19f	-0.13049935
68	0xbcfbed36	-0.03075276
69	0xbc43285c	-0.011911478
70	0xbca45703	-0.020061022
71	0xbd611f5c	-0.054961547
72	0xbdccef22	-0.100065485
73	0xbe01e580	-0.12685204
74	0xbcbc7b4c	-0.023008011
75	0xbac5f14a	-0.0015101817
76	0xbd47c682	-0.048773296
77	0xbd21ac45	-0.03947093
78	0xbda4420a	-0.080204085
79	0xbe35249a	-0.17689744
80	0xbdeb0c52	-0.11476959
81	0x3cd767f6	0.02629469
82	0x3da5ae74	0.08089915
83	0xbd5c47d5	-0.053779442
84	0x3c94984c	0.018139027
85	0x3ba76be7	0.0051092985
86	0xbcbda824	-0.023151465
87	0xbc49022b	-0.012268583
88	0x3d6cf5a3	0.057851445
89	0xbd0548e7	-0.03254023
90	0xbc8ce600	-0.017199516
91	0xbca12164	-0.019669242
92	0x39b1a394	0.00033881946
93	0x3cd3d6dd	0.02585929
94	0x3da017c2	0.078170314
95	0xbbf2c1a7	-0.007408339
96	0xbcbcd65b	-0.023051431
97	0xbd3766ad	-0.044775654
98	0xbc86f896	-0.016475957
99	0x3ca6937c	0.020333998
100	0xbca35581	-0.019938232
101	0xba9605b0	-0.0011445787
102	0xbb9b7eeb	-0.0047453544
103	0x3d03acd2	0.032147236
104	0xbc2e67d5	-0.010644873
105	0xbca4e200	-0.020127296
106	0xbb900305	-0.004394891
107	0x3ae349e2	0.0017340744
108	0xbda98360	-0.08277011
109	0xbdb6baea	-0.0892237
110	0xbd4ab953	-0.049493145
111	0x3c1cd071	0.009571181
112	0xbd74bd0d	-0.059750605
113	0xbc9758ae	-0.018474903
114	0x3cb21b32	0.021741483
115	0xbd20a393	-0.039218497
116	0xbd9e15c4	-0.07718995
117	0x3d1b3fe4	0.037902728
118	0xbc5a3fc9	-0.013320872
119	0xbd16a390	-0.03677708
120	0x3d21d37e	0.039508335
121	0x3e12b15b	0.14325468
122	0xbd8941c4	-0.06701997
123	0xbd22041e	-0.039554708
124	0x3d292baa	0.041301407
125	0x3ce98397	0.02850513
126	0xbc131b77	-0.008978716
127	0x3d3ca765	0.046058077
128	0x3d9b9b25	0.07597951
129	0xbe336736	-0.1751984
130	0xbcc33504	-0.02382899
131	0x3caeab48	0.021321908
132	0xbc3ef4d1	-0.0116550485
133	0xbc056126	-0.008140838
134	0xbd6f6b04	-0.058451667
135	0xbcbe386a	-0.02322026
136	0x3a04b8f4	0.00050629606
137	0x3d063cc7	0.032772806
138	0x3d752f31	0.05985946
139	0xbb355019	-0.002766615
140	0xbca2d7d5	-0.019878307
141	0xbd4b2211	-0.049593035
142	0x3d1fb30d	0.038989116
143	0xbc0bd0a4	-0.0085336305
144	0x3ce0ce19	0.027442025
145	0x3cf5200e	0.029922511
146	0xbccc6048	-0.024948254
147	0x3d18ff0f	0.037352618
148	0xbc8d5e2f	-0.017256824
149	0x3c791c4a	0.015204499
150	0x3cca6db1	0.024710508
151	0x3c25f3d3	0.010128933
152	0x3ca9cc24	0.020727225
153	0x3d4c1a2d	0.04982965
154	0x3d57fb82	0.05273009
155	0x3c9ef3f3	0.019403433
156	0x3d071d52	0.032986946
157	0x3d685327	0.056719925
158	0x3d170cfc	0.036877617
159	0x3d5b1472	0.053486295
160	0x3c68f944	0.014219586
161	0x3c84b9db	0.016201904
162	0x3d07235b	0.032992702
163	0x3d889f9b	0.06671067
164	0xbd955c49	-0.072929926
165	0x3d51c278	0.05121085
166	0x3ddea47e	0.10871218
167	0x3d8d37ef	0.06895434
168	0xbd7db151	-0.06193668
169	0xbc495fa2	-0.012290867
170	0x3dd64846	0.10463004
171	0xbc959912	-0.018261466
172	0x3d0baf3e	0.03410267
173	0x3dc63cf2	0.09679593
174	0x3c92d6b2	0.01792464
175	0x3b94e7f8	0.0045442544
176	0xbb0f86d8	-0.0021900441
177	0x3dbc63e8	0.09198743
178	0x3d452562	0.048131354
179	0xbc691798	-0.014226817
180	0xbc9e1dbe	-0.019301292
181	0xbccbf63f	-0.024897693
182	0x3b804e62	0.003915594
183	0x3c3fcb11	0.01170613
184	0x3c937df5	0.018004397
185	0x3cbfe7ba	0.023425926
186	0xbe66ff18	-0.22558248
187	0xbdf73a15	-0.12071625
188	0xbd0c6e43	-0.03428484
189	0x3d82ec02	0.06392671
190	0x3cc5736e	0.024102893
191	0xbc8b0fab	-0.016975245
192	0xbca38ba8	-0.019964054
193	0xbd984e8c	-0.074368566
194	0xbd92c892	-0.07167162
195	0x3c341b79	0.010992878
196	0x3d27e578	0.040990323
197	0xbcc87fa1	-0.02447492
198	0x3c15c84e	0.009141995
199	0x3c948a94	0.018132485
200	0xbcdf342f	-0.027246563
201	0x3a939306	0.0011259026
202	0x3cd17f82	0.025573496
203	0x3b9aa567	0.0047194245
204	0x3c09a786	0.008401757
205	0xbd2822c7	-0.04104879
206	0xbb42078e	-0.0029606554
207	0xbc9417e2	-0.018077794
208	0xbd4c02d2	-0.049807377
209	0xbc39f4d6	-0.011349877
210	0x3c1601ac	0.009155672
211	0xbc2ff003	-0.010738376
212	0xbc546598	-0.012963675
213	0xbcdd5f14	-0.027022876
214	0x3c65883c	0.014009532
215	0x3db70a8d	0.08937559
216	0x3c8eb195	0.017418662
217	0xbc02e21b	-0.007988478
218	0xbd594162	-0.05304087
219	0xbdcd8bb2	-0.100364104
220	0xbd9f2664	-0.07770994
221	0x3d2bcc4e	0.041942887
222	0x3d8c205b	0.06842109
223	0x3b15015c	0.0022736406
224	0xbd8e0736	-0.06934969
225	0x3cdee55c	0.027208976
226	0x3d8baa6b	0.06819614
227	0xbd0c4013	-0.034240793
228	0xbc999502	-0.01874781
229	0x3cd92d9f	0.026511012
230	0xbb0e1b9c	-0.0021683937
231	0xbd190816	-0.037361227
232	0x3ce7364e	0.028224137
233	0x3d87347c	0.066018075
234	0x3c2b72c0	0.01046437
235	0xbdf61b28	-0.120168984
236	0xbd2b96aa	-0.04189173
237	0xbcac61af	-0.021042673
238	0x3cdbd151	0.026833208
239	0xbb49d04e	-0.0030794325
240	0xbd945c1d	-0.07244132
241	0xbcac29fd	-0.021016115
242	0xbda67703	-0.081281684
243	0xbc3fbdb7	-0.011702946
244	0xbc78fc7b	-0.015196915
245	0xbac06b5b	-0.0014680432
246	0xbc92fd8f	-0.017943172
247	0xbc826035	-0.015915016
248	0xbd10833a	-0.035281397
249	0x3c88c57f	0.016695736
250	0xbb97919a	-0.0046255114
251	0x3ca0532b	0.019570908
252	0x3cae512a	0.021278936
253	0xb997296d	-0.0002883183
254	0xbd744cbe	-0.0596435
255	0xbc9c0d7c	-0.019049399

fc.bias f4 [10]
0	0x3cf59374	0.029977538
1	0x3d1189ac	0.035531685
2	0xba6a7953	-0.00089444703
3	0x3ca05793	0.019573009
4	0x3a6a5a2f	0.000893983
5	0xbb90f370	-0.0044235513
6	0x3c737e29	0.014861622
7	0xbb8f6af4	-0.0043767635
8	0xbccefa42	-0.025265817
9	0xb9394016	-0.00017666849
