UsefulClicker/py/model.ckpt (torch, 83445 bytes, 14 tensors)

layer1.0.weight f4 [16, 1, 5, 5]
000000 48 d4 45 3e 04 17 ff 3d af 29 99 bd 00 83 e1 3d
       0.1931926 0.12455562 -0.07478654 0.110113144
000010 59 29 e0 3d 80 96 cd bd 9e cf 17 3e dd cd 34 3c
       0.109453864 -0.10038471 0.14825293 0.01103541
000020 9d d1 da bc eb 6b e8 bd b3 ab ee bd 20 c2 3b 3d
       -0.02671128 -0.11348709 -0.11653843 0.04583943
000030 a3 b7 d3 bd 3e 99 4e be 84 d6 2f be 12 f4 83 be
       -0.1033776 -0.20175645 -0.17171675 -0.25772148
000040 22 27 5c be 16 33 ec bd 50 60 5d 3d 71 66 c6 3d
       -0.21499303 -0.11533181 0.05404693 0.09687508
000050 19 b6 ee 3d a6 7f 5e 3d a6 6e 4f 3e 56 21 83 bd
       0.11655826 0.054320954 0.20257053 -0.06402843
000060 a7 e6 b6 3c f5 b3 c9 3c 79 4b 1d 3c ce c8 13 be
       0.02232678 0.024621943 0.009600514 -0.1443207
000070 df 05 39 be e0 be cc bd a0 32 4a bd d8 fc 31 be
       -0.18068646 -0.09997344 -0.049364686 -0.17381608
000080 49 71 29 3e e3 f2 64 3e d4 4f 63 3d 00 11 7a 3d
       0.16547121 0.22358279 0.055496052 0.06105137
000090 62 79 ed 3d 91 1c 61 3e 4b 51 3d 3d 64 08 ca b9
       0.115954176 0.21983553 0.046220105 -0.00038534694
0000a0 b6 5b 47 bd 02 15 11 bd 81 a3 8b 3c a5 1e 04 3d
       -0.048671447 -0.035420425 0.017045738 0.032255787
0000b0 2d 6d f9 bd a7 cc 1b be ac ab 30 3c 9b aa bc 3d
       -0.12179027 -0.15214787 0.010783117 0.09212228
0000c0 d4 a4 27 be 10 80 3b bc 60 2a 8f 3d fd 7f 80 3e
       -0.1637147 -0.011444107 0.06990504 0.25097647
0000d0 bf 81 51 3e b8 95 40 bc af 29 53 3e 07 b0 50 bc
       0.2045965 -0.011754446 0.2062137 -0.012737281
0000e0 48 bb 52 3e ee 1c d6 3d 4e 42 03 3e 9b f5 c4 3d
       0.20579255 0.10454737 0.12818262 0.09617158
0000f0 c8 15 0f bc 6f d3 e9 bd 9c b1 1d be 5d 36 86 bc
       -0.00873322 -0.11417281 -0.15399784 -0.016383344
000100 d4 b5 1f be 55 bd 70 bc 2d 6a e3 3b 2d cf dd bd
       -0.15596706 -0.014693578 0.0069401474 -0.10830531
000110 ef 30 24 3d ac b9 68 3e a1 e3 50 be a2 2e 23 3e
       0.04008573 0.22727078 -0.20399334 0.15935758
000120 33 eb 35 3e ce dc c2 bd 7a 2d 0d bd f5 2b d9 bd
       0.17765503 -0.095147714 -0.034467198 -0.10604087
000130 2f 91 52 be 42 d7 0c 3d b1 41 24 bd 00 0a 58 be
       -0.20563196 0.034384973 -0.04010171 -0.21097565
000140 1e ce 82 3d d6 2a fe 3c 91 46 55 be 43 17 9b bd
       0.0638697 0.031026285 -0.208277 -0.07572796
000150 f2 87 83 be 65 5e 29 3e 89 2e 44 bc 94 ae 0f 3e
       -0.25689656 0.16539915 -0.0119739855 0.1403144
000160 cf 56 9c 3d 15 e8 c1 bb ea 01 35 3d 5d 36 04 3e
       0.07633745 -0.005917559 0.04419128 0.12911363
000170 04 c1 bd bd 01 1f f4 3d 08 81 12 be a5 1f 01 be
       -0.092653304 0.11919976 -0.14307034 -0.12609728
000180 f7 cf d0 3d d0 43 c7 bb 0b f0 2f 3e 67 69 04 bd
       0.10195916 -0.006081082 0.17181413 -0.032327082
000190 57 84 2e be ba e0 c5 3b b8 33 60 be 39 2d ff 3d
       -0.17042671 0.0060387524 -0.21894729 0.124597974
0001a0 a5 00 41 3d 52 bd 08 be 9d 91 2f be 28 0a e8 bd
       0.047119755 -0.1335347 -0.17145391 -0.11330062
0001b0 49 79 86 3d b1 49 18 be 67 37 b7 bd 4e 80 73 bc
       0.06566102 -0.14871861 -0.08946114 -0.014862133
0001c0 e3 64 c1 3c af 58 8f bd 3d 59 d4 3d 92 66 0b be
       0.023607677 -0.06999337 0.10368583 -0.13613346
0001d0 02 09 b6 bd f9 97 94 3d bb 3a 74 3d 4e 8d 39 3e
       -0.08888437 0.07255549 0.059626322 0.1812031
0001e0 08 13 b8 3d c4 69 85 bd b3 46 f4 bc f1 34 ae bd
       0.08988005 -0.06514314 -0.029818868 -0.085061915
0001f0 30 12 bf 3d e1 7b 27 3e bd 95 97 3c 9c b0 32 be
       0.09329641 0.1635585 0.018504018 -0.17450184
000200 63 a6 d9 bd 4a a4 98 3c 9a e0 b5 3d 6d ba 2e be
       -0.10627439 0.018633027 0.0888073 -0.17063303
000210 79 90 22 be a0 3f 8a bd 46 31 76 3e 0c ad 32 be
       -0.15875424 -0.06750417 0.24042234 -0.17448825
000220 eb c4 cd 3c 5d af 3d be 5a bc 95 bc f4 e4 e0 3d
       0.025118312 -0.18523927 -0.01827829 0.10981169
000230 26 0b 0e be 4d da e8 bd 77 0c 33 be 16 14 0f 3e
       -0.1387144 -0.113697626 -0.17485224 0.13972506
000240 ff 9c 7a bd 63 68 aa 3c f2 c9 5b 3e e7 d0 e0 3b
       -0.06118488 0.020801729 0.21463755 0.0068608406
000250 34 c4 d8 bd 88 8b 04 bd c9 8f 9a 3e e1 71 50 bd
       -0.10584298 -0.03235963 0.30187824 -0.050889853
000260 08 eb 6d be 67 0e 23 bd c5 c2 01 3e 0e 7a 3a 3d
       -0.23234189 -0.039808657 0.12671955 0.045526557
000270 db 33 82 bd 80 37 37 be 60 20 0e be 65 6d 9a 3d
       -0.06357547 -0.17892265 -0.13879538 0.075403966
000280 62 3f 05 be 3b 53 90 bc 07 e8 7e 3a 9a 17 cd bd
       -0.1301246 -0.017617812 0.0009723906 -0.10014267
000290 58 c0 31 3c 16 e8 9f 3d cc a8 99 bd 7e 50 c8 3d
       0.010849081 0.07807939 -0.075028986 0.09780978
0002a0 c3 33 b2 bc 23 82 8e 3d 19 ef 0e 3d 89 20 61 be
       -0.021753198 0.06958415 0.03489599 -0.21985067
0002b0 72 4c 55 3e 01 fb 7f 3d 50 c8 d8 bc b4 b0 50 3d
       0.20829943 0.062495235 -0.026462704 0.050949767
0002c0 16 f9 aa bd d6 31 ed 3d 95 0f 6c 3d d4 f6 05 be
       -0.083482906 0.11581771 0.057632048 -0.13082439
0002d0 b9 21 82 bc c6 63 6f 3e 15 39 d1 3d 84 7d 0f be
       -0.01588522 0.23377904 0.10215966 -0.14012724
0002e0 f6 99 40 bb 13 8b 61 be a7 19 83 3e f4 50 f6 bd
       -0.0029388643 -0.22025709 0.2560551 -0.12027159
0002f0 4d fc a9 bd bb 34 9a be 3e c4 b9 3d ac 83 a1 3d
       -0.08300076 -0.30118355 0.09070633 0.078864425
000300 0e 4b 0c be 05 a4 49 3e f7 86 5b be 2c 04 07 be
       -0.13700506 0.19691475 -0.21438204 -0.13185185
000310 86 e3 6c bd 75 26 02 3a 02 ce 83 3c 32 94 23 be
       -0.05783417 0.0004964837 0.016089443 -0.15974501
000320 f1 f4 53 bd 5a e6 c8 bd 42 c8 e2 bc 88 db 92 3c
       -0.051747266 -0.09809561 -0.027683381 0.017926946
000330 e8 e7 64 3d 1d 27 47 3e 63 7b 13 3e 58 5c a6 be
       0.055885226 0.19448514 0.14402537 -0.32492328
000340 cd df f4 3d 0e 84 31 3d eb 2d 14 bd 58 8b 47 bd
       0.11956749 0.043338828 -0.036176603 -0.048716873
000350 85 93 d5 be 90 ee 8d be bf fa dd bc 90 6a 01 3d
       -0.4171411 -0.2772107 -0.027097104 0.031595767
000360 d4 b5 46 be 9d 92 55 be d7 ae 19 be 03 7a 55 3e
       -0.194053 -0.2085671 -0.15008102 0.20847325
000370 63 a8 fd 3c 00 e0 79 3d 71 65 fd bc 55 f8 4e 3e
       0.030964082 0.06100464 -0.03093216 0.20211919
000380 86 33 05 3e e5 0e d3 bd b6 9b a8 bc 1e 28 c2 bd
       0.13007936 -0.10305575 -0.020582061 -0.09480308
000390 45 5f 09 bd 74 19 02 3d 5b 5e 4e 3d 5d d5 4c 3d
       -0.03353812 0.031762555 0.050382953 0.050008167
0003a0 96 e4 92 be 73 76 70 3d 5b 0b 94 3e a2 f2 db bc
       -0.28690022 0.058706712 0.28914914 -0.026849095
0003b0 f2 7a e5 bd ed 94 31 bd 5c e3 17 3b 1e 15 20 be
       -0.112050906 -0.043354917 0.0023176288 -0.15633056
0003c0 20 b5 8b bd 22 8d af 3e e5 96 14 be 4d a5 d2 bc
       -0.06821656 0.34287363 -0.14510687 -0.025713587
0003d0 f2 70 16 3e 6c ec 54 3e 04 b8 f4 bd 88 96 60 3d
       0.14691523 0.20793313 -0.11949161 0.054831058
0003e0 2c 6e 8e bd 67 9d 42 bd 95 73 fb 3d d4 2c fe bd
       -0.06954607 -0.04751339 0.12277905 -0.12410894
0003f0 60 3e b2 bd 95 63 48 3d e5 ca 3c be 54 8d fb 3c
       -0.08703303 0.048923094 -0.18436773 0.030707039

layer1.0.bias f4 [16]
000000 2a d9 23 3e 54 7d e4 bd 4e ef 15 be 70 21 98 bd
       0.1600081 -0.11156717 -0.14642069 -0.07428253
000010 18 21 3c 3e 77 c1 98 3d 91 3b c8 3d 71 ec ee 3d
       0.18372 0.074587755 0.097769864 0.11666191
000020 7b 30 9b 3d 8b ea 65 be 6a 13 01 bd b7 8a 9d 3b
       0.07577606 -0.22452752 -0.031512655 0.004807796
000030 8e 67 89 be eb a6 f8 3d 9c dc 97 bd 4f b9 00 be
       -0.26836818 0.12141212 -0.07415125 -0.1257069

layer1.1.weight f4 [16]
000000 cf 76 9d 3f 32 37 96 3f 9e 32 01 3f a3 76 42 3f
       1.2301883 1.1735594 0.5046786 0.75962275
000010 8f 99 62 3f 2c 5d 82 3f cd eb a4 3f 0c 5d 91 3f
       0.8851556 1.0184684 1.2884461 1.1356521
000020 3f ef 81 3f 47 a0 8f 3f 1f e0 18 3f b0 3e 77 3f
       1.0151137 1.1220788 0.5971698 0.9658003
000030 87 49 ae 3f 64 06 88 3f ee 96 19 3f cc 13 81 3f
       1.3616189 1.062695 0.59995925 1.0084167

layer1.1.bias f4 [16]
000000 b3 d7 c6 bd cc 70 29 be 3f 21 c6 be b9 dd 69 be
       -0.0970911 -0.16546935 -0.3869724 -0.22838487
000010 62 5c 80 be 30 90 ef ba e3 d0 ed bd 46 8c 15 be
       -0.25070482 -0.0018277224 -0.116121076 -0.14604291
000020 64 c4 6d bd fd 45 c5 3c 09 62 96 be 0f 9c 98 be
       -0.05804862 0.024081225 -0.2937167 -0.29806563
000030 de 5c 5d be ba 73 84 3c 90 38 af be a5 fa 0a be
       -0.21617457 0.016168464 -0.3422284 -0.13572176

layer1.1.running_mean f4 [16]
000000 73 cc 15 3e 34 1c eb bd 28 7e cd bd 8e b2 c2 bd
       0.14628772 -0.11479989 -0.10033828 -0.09506713
000010 1b 15 1a 3e d5 88 2e 3d 36 8b b4 3d 02 af b6 3d
       0.15047114 0.042610962 0.08815615 0.08920099
000020 55 a6 2d 3d ce 54 6c be 30 54 51 bd ee fb c8 3c
       0.042394955 -0.23079225 -0.051105678 0.024534192
000030 72 90 8c be 01 61 be 3d de a8 c5 bd 3e 84 07 be
       -0.27453953 0.09295846 -0.096513495 -0.1323404

layer1.1.running_var f4 [16]
000000 74 47 b3 3a cd 23 bf 38 92 84 49 3c 87 f2 67 3b
       0.0013677911 9.114258e-05 0.012299674 0.003539236
000010 bd 22 e4 3b 03 2f bd 3b 01 56 2e 3a d4 79 a4 3b
       0.006962149 0.0057734265 0.0006650389 0.005019406
000020 c4 43 db 3b b4 10 cc 39 80 71 75 3b 52 92 0a 3b
       0.006691428 0.00038922357 0.0037451684 0.0021144343
000030 83 f6 b0 39 be 17 9b 3b 98 73 99 3b 74 a3 0c 3a
       0.00033753001 0.004733055 0.0046829693 0.00053649326

layer2.0.weight f4 [32, 16, 5, 5]
000000 b4 97 da bc 78 8f 36 3d 37 8b 45 3c 37 9a 7e 3d
       -0.026683666 0.044570416 0.012057117 0.06215879
000010 63 de 3f 3d fc 50 21 3c 71 bf e7 bd a7 25 25 3d
       0.046842944 0.009845968 -0.113158114 0.04031911
000020 7f 17 9b 3d f1 a3 a2 bb 36 b4 3b 3d be 21 5f 3d
       0.07572841 -0.004963391 0.04582616 0.05447554
000030 8c 99 b1 3b c1 89 d2 bb dd fb 3a 3d 06 80 c9 3d
       0.0054199155 -0.006425113 0.04565035 0.09838872
000040 57 a6 b3 3d 94 47 58 3d 90 94 d7 3c bd 1b 22 bd
       0.08771961 0.052802637 0.026315957 -0.039577235
000050 33 ca 2d 3d 9d 8a c4 bd 10 a5 4b be 08 95 0f be
       0.04242916 -0.09596751 -0.19887185 -0.14021695
000060 ab 67 b0 bd 13 7c b4 3c 8c 27 a5 bb 0d a0 77 3b
       -0.08613523 0.02203182 -0.0050401147 0.0037784607
000070 31 7d 88 3d 2c e2 aa 3b b5 72 ae 3d f2 68 36 3e
       0.06664503 0.00521495 0.085179724 0.17813471
000080 d1 69 61 bc 25 b6 2a bd ab 91 5e 3d fa 28 5f 3c
       -0.013758139 -0.041677613 0.05433814 0.013620609
000090 0b 7a 31 bd 9d 05 0f be 86 18 f8 bd 2c 4f 19 bd
       -0.04332928 -0.13966985 -0.121140525 -0.03742902
0000a0 c6 ac 9d bd 6f 70 5e bd ae 0f 07 be 68 7b c8 bd
       -0.076989695 -0.054306444 -0.13189575 -0.09789163
0000b0 af 2c 62 bc df 6a 9b 3d 47 d8 ad bd 57 5e 13 bd
       -0.013804599 0.075887434 -0.08488517 -0.03597864
0000c0 c9 78 1c bd 93 13 84 bd 13 4f a6 3c 79 f9 1f 3d
       -0.038201127 -0.06449046 0.020301377 0.039056275
0000d0 e3 ed 77 ba 70 8b b8 3c c4 a7 5e bb af 2a 2e bc
       -0.000945775 0.022527426 -0.0033974508 -0.010630294
0000e0 64 1c b4 bc b7 cd 35 bd ad 65 66 bc 23 cb 7a bc
       -0.021986194 -0.044385638 -0.014062327 -0.015307221
0000f0 4e 3a 20 3d b4 67 20 bd 4b be 0b bd 89 2d 25 bc
       0.039118104 -0.0391614 -0.034117024 -0.010081657
000100 78 c0 fb 3c f2 52 5b 3d 8a 05 14 3d 5b 15 17 3d
       0.030731425 0.0535459 0.036138095 0.0368856
000110 7d 38 df 3d c7 da e4 3d 6d 5e d5 3d 61 b8 85 3d
       0.10899446 0.11174541 0.10418401 0.06529308
000120 30 e6 1d 3e 2b 27 1e 3e 67 a2 d4 3d bc 7b 5a bc
       0.15419841 0.15444629 0.10382538 -0.013335165
000130 82 d3 63 bd a6 cf d6 bd 36 7c ce bd 75 3f 82 bd
       -0.05562163 -0.104888245 -0.10082285 -0.0635976
000140 1d 8f 05 3e 30 dc 34 3e d6 70 1a 3e 67 c7 80 3d
       0.13042875 0.1766212 0.15082106 0.06288033
000150 ea fe 61 3d 95 63 fd bc 2f 9e df bb 17 ee 63 3c
       0.055174746 -0.030931273 -0.006824277 0.0139117455
000160 48 92 f6 39 11 71 19 bc 6c 2d bf ba 94 68 b4 3a
       0.00047029764 -0.009365336 -0.001458568 0.0013764077
000170 8e 86 8f bb ca ce 5f bd 62 17 6f 3d 4a 60 0d bd
       -0.004380054 -0.05464057 0.05837191 -0.034515657
000180 90 60 2d bd 54 c9 bf 3c 5c f2 6c 3d 8d af 43 3d
       -0.042328417 0.02341143 0.05784832 0.04777484
000190 bb 22 e3 bc 3d 4d 78 3c 77 3e d0 3c f8 2e 35 3d
       -0.027726522 0.015155134 0.02542041 0.044234246
0001a0 45 7b e3 bc b0 68 8b 3d 4b 25 83 3d be fa 61 3c
       -0.02776874 0.06807077 0.064035974 0.013792692
0001b0 75 c7 5b 3d 31 4a b1 3d 86 76 fd ba ab 38 41 3c
       0.053657014 0.08656729 -0.0019337691 0.011793296
0001c0 5f 31 9d bd 1e 15 89 bd 8d 5b 01 3c 89 52 ac 3c
       -0.076754324 -0.06693481 0.007895363 0.02103545
0001d0 01 f2 bb 3d b7 61 12 3d 80 39 6e 3d e6 0b 2d bd
       0.09177018 0.03573772 0.058160305 -0.042247675
0001e0 54 28 cd 3d 88 cb 28 3e 43 95 39 3d 39 64 b9 3d
       0.100174576 0.16483891 0.045308363 0.09052319
0001f0 43 51 3c bd 64 e8 4d 3d 86 5b 03 3c 26 b2 5e 3d
       -0.045975935 0.050270453 0.008017426 0.054369114
000200 85 c3 cd 3d ff fe bb 3d 3b d1 c2 3c 0a b6 16 be
       0.10047058 0.09179496 0.02378141 -0.1471788
000210 67 c4 a7 be 5e a3 16 be d4 a1 d8 bd 91 8c a2 3c
       -0.3276703 -0.14710757 -0.10577741 0.019842418
000220 3a bc 11 be ca e4 8f bd ad 82 26 bd 09 f1 9e bd
       -0.14231959 -0.0702606 -0.040651966 -0.077608176
000230 f1 b8 bb 3d 39 54 ed bc 37 21 a2 3c a5 4a 95 3d
       0.09166134 -0.028970825 0.019791229 0.07289628
000240 33 e7 77 3c c4 f6 0e 3e 46 4d 05 3e f8 66 27 ba
       0.015130806 0.13961321 0.13017759 -0.0006385888
000250 f2 0f 41 3b 0a 34 5d 39 08 fa 26 bd 1a 14 2e 3c
       0.0029458967 0.00021095588 -0.040765792 0.01062491
000260 7a a3 eb 3b 7b 65 63 bd 1c 22 03 bd 65 f2 22 3d
       0.007191119 -0.0555167 -0.03201495 0.039781947
000270 06 f5 bd 3d 0d f0 22 3d 9b 5f 8e 3d 04 02 c0 3d
       0.0927525 0.03977971 0.06951829 0.093753844
000280 e1 c7 bd bd e7 16 0f be 0c 68 76 bc 1b bb b5 bc
       -0.092666395 -0.1397358 -0.015039455 -0.022183945
000290 cf 7e a9 bb e6 02 27 3d 37 52 0a bd f3 01 f5 3c
       -0.0051725875 0.04077425 -0.033769812 0.029908156
0002a0 6d 07 29 3d a6 ea 00 bc d8 7a ff 3c c8 ec d5 3d
       0.041266847 -0.007868445 0.031186506 0.10445553
0002b0 42 b4 5e 3d 3f 50 b0 3d b3 36 79 bc 73 b1 54 3d
       0.054371126 0.08609056 -0.015210795 0.05192704
0002c0 56 e7 8a 3d b8 4d 2d 3d 10 ff 6b 3d 52 bb b9 3d
       0.06782405 0.042310447 0.057616293 0.09068932
0002d0 a5 05 3f 3d a4 f9 7a 3c f2 29 f5 bd dd 3b 46 bd
       0.046636242 0.015318308 -0.11970891 -0.048396934
0002e0 a6 39 d3 bd a4 8c 58 39 d9 55 24 3d 68 f3 2c bd
       -0.1031373 0.00020651758 0.040120933 -0.042224318
0002f0 d4 3d b5 3b 52 f8 32 bd f1 83 c3 3d e7 bc 95 bc
       0.005531052 -0.043693848 0.0954665 -0.018278552
000300 ca b2 a1 bd 10 0e 26 3d 62 73 b3 bd dc fc ca 3d
       -0.078954294 0.040540755 -0.08762242 0.0991151
000310 44 d4 63 bd 01 8e 8f bd 07 3b 9e bd a3 f8 07 bc
       -0.055622354 -0.07009507 -0.07726102 -0.008299026
000320 46 f5 1e 3d 0e 94 0c 3c a6 49 c1 3d be d7 40 3d
       0.03880813 0.008580221 0.094378754 0.047080748
000330 7d 39 a5 3d 87 b1 c3 bb ce 07 75 be 2b e0 69 bd
       0.08067606 -0.0059720906 -0.23928759 -0.05709855
000340 fb e5 fa bd 9f 1a 33 be 18 8a 1c 3d c7 83 9f bd
       -0.122508965 -0.17490624 0.038217634 -0.077888064
000350 2e 09 bd bd cf d6 3b bd 2c 87 fa bc 14 f2 99 3d
       -0.092302665 -0.045859154 -0.030582033 0.07516876
000360 c6 81 d3 3c 8c 03 0d 3c 3d af 90 3b 15 b9 96 bd
       0.025818717 0.008606803 0.0044154213 -0.0735952
000370 80 72 3e 3d c4 a7 09 be d1 f4 15 bd 11 36 eb bc
       0.046495914 -0.13442904 -0.03661043 -0.028712304
000380 32 55 df bb 24 5f 74 bc 8a 1b 33 3c cd 14 fd bc
       -0.006815576 -0.014915261 0.010931859 -0.030893708
000390 e6 ae 0f 3d 32 63 a1 3d 51 b5 47 bc f5 48 b1 bd
       0.035078906 0.07880248 -0.012189225 -0.086564936
0003a0 5b df a4 3c 4e 28 a6 3d 84 b8 e2 3d 7f d2 84 bd
       0.020126035 0.08113156 0.1107035 -0.064854614
0003b0 6a 02 5b be e3 0e 1d be fb c2 ad bd a9 35 a0 bd
       -0.2138764 -0.1533771 -0.08484455 -0.07822735
0003c0 64 9b 3d bb c6 94 98 bd 1f ef 09 be c4 d9 77 bd
       -0.0028931731 -0.07450251 -0.13470124 -0.06051041
0003d0 e6 81 39 bc c4 71 bf 3d ea d1 6b bd 21 dc cf bd
       -0.011322474 0.09347871 -0.057573237 -0.10149408
0003e0 2a 78 43 bd 3a b8 ac bd e8 68 18 3c 79 57 dd bc
       -0.04772202 -0.08433576 0.009302355 -0.02701925
0003f0 b8 10 a1 bc 39 d2 8d bd a1 2d 8b bc 8a 63 a1 bb
       -0.019661292 -0.069248624 -0.016989531 -0.004925196

layer2.0.bias f4 [32]
000000 d0 37 61 3e e3 70 a9 3d 86 91 a6 bc d8 5b 10 bd
       0.21993947 0.082734846 -0.020333063 -0.03524384
000010 1c 66 34 3d 9d 1b ad 3d eb 19 7c ba 44 56 76 3d
       0.04404269 0.084525324 -0.0009616899 0.060140863
000020 ce a8 3b 3e 19 4c e0 3c c4 10 e1 bc 95 10 3e 3e
       0.18326113 0.027380036 -0.027473815 0.18561013
000030 a1 11 27 3d 27 b0 22 bb 2b 05 b3 bd 6f c1 a9 3d
       0.040788297 -0.0024824233 -0.0874122 0.08288848
000040 db 42 e1 3c 03 a4 b9 3d b9 ea dc 3c 82 e9 b3 3d
       0.0274977 0.09064486 0.026967393 0.087847725
000050 09 46 cc bd 01 74 11 3d 5c f5 01 be d4 ff e9 3c
       -0.09974296 0.03551102 -0.12691253 0.028564371
000060 fd 76 31 3d b4 3e c9 bd 29 88 27 3d 1f bf 53 bd
       0.043326367 -0.09826413 0.040901337 -0.05169594
000070 2e e7 8a 3d c8 0a ac 3d 0f d7 07 3d 1e 1a 91 bc
       0.06782375 0.08400494 0.03316408 -0.017712649

layer2.1.weight f4 [32]
000000 3f c0 8f 3f 03 80 b3 3f a9 38 96 3f 99 8b ed 3f
       1.1230544 1.4023441 1.1736041 1.8558227
000010 1e a5 03 40 4d fc 8d 3f c1 6b 92 3f ad 5a 8e 3f
       2.056953 1.1092621 1.1439134 1.1121422
000020 4b be a9 3f e2 39 13 40 f0 50 86 3f 2e ab 86 3f
       1.3261198 2.300408 1.049345 1.052099
000030 95 e0 8d 3f b8 54 a1 3f 4e 26 e6 3f 8d d6 97 3f
       1.1084162 1.2603979 1.798044 1.1862351
000040 34 da 9b 3f f4 01 ce 3f 81 37 a2 3f a0 d7 a5 3f
       1.2175965 1.6094346 1.2673188 1.2956429
000050 2c c9 98 3f 5d 57 89 3f 70 93 f8 3f ef c1 90 3f
       1.1936393 1.0729786 1.9419994 1.1309184
000060 2f 04 98 3f 5e fb 93 3f a1 59 a3 3f 5f b3 76 3f
       1.1876277 1.1561086 1.2761728 0.9636745
000070 17 27 8a 3f 20 ff 73 3f 3b 7e 9d 3f 08 22 70 3f
       1.0793179 0.95311165 1.2304147 0.9380193

layer2.1.bias f4 [32]
000000 ef fd 57 be c6 61 7e bd 18 5d c5 bd c0 30 e1 bc
       -0.21092962 -0.062104963 -0.09636897 -0.027489066
000010 f2 68 6e be ab 7d 8a bd ab 3d be bd 23 3c 37 bc
       -0.23282221 -0.067622505 -0.09289106 -0.011183771
000020 33 02 90 bd 04 0c a0 3d 76 1b 30 be c4 47 32 3d
       -0.070316695 0.07814792 -0.17197976 0.043525472
000030 34 b7 28 be 90 9a 8a bd f0 1c c0 bb 17 13 36 bd
       -0.16476136 -0.06767762 -0.0058628246 -0.0444518
000040 1d b3 11 be 29 67 71 3c a0 93 ed bd 3b 81 c9 bd
       -0.14228483 0.014734068 -0.11600423 -0.09839102
000050 85 10 70 be b0 da ad bd bc 03 13 bd 4e 36 4d be
       -0.23443802 -0.08488977 -0.035892233 -0.20040247
000060 54 9c 8c 3c ee f8 e1 bd 0b 68 c3 3b 53 44 11 bd
       0.017164387 -0.11033808 0.0059633306 -0.03546555
000070 e8 b2 92 3c ec b9 f8 bc 5f 58 a2 3d 33 e1 67 be
       0.017907575 -0.030362092 0.07927012 -0.226445

layer2.1.running_mean f4 [32]
000000 fb db dd be 91 82 41 3e e2 4f b1 be 4f e8 31 be
       -0.43331894 0.18897463 -0.34631258 -0.17373775
000010 a6 db 67 be df 84 5f 3e 46 06 99 bf 8e df e4 bf
       -0.22642383 0.2182803 -1.195504 -1.7880723
000020 db 23 21 3e ae 48 89 3d 4a cf 4d bf b0 05 59 c0
       0.15736334 0.06703316 -0.80394423 -3.3909721
000030 90 05 e0 be 52 a1 0b 3e c4 41 2e 3e 81 20 e4 be
       -0.43754244 0.13635758 0.17017275 -0.4455605
000040 ab ad 11 bf de d7 d0 bd 18 c1 41 bf c5 f3 07 3f
       -0.5690562 -0.101974234 -0.7568526 0.5310634
000050 78 16 bd be 14 36 85 bf 3d 75 04 bc d6 f2 bc bd
       -0.36931205 -1.0407128 -0.008084592 -0.09226005
000060 94 a5 8e bf ba 18 56 bf 78 a7 35 3f 13 97 4b 3e
       -1.114428 -0.8363148 0.7095866 0.19881849
000070 92 ae 0c 3f 80 ea 6b 3c a2 de f7 bd 55 cb 74 bf
       0.54953873 0.014399171 -0.12103011 -0.9562276

layer2.1.running_var f4 [32]
000000 78 5c 29 3e 5b 2c 84 3d de 31 91 3d 79 b9 fd 3d
       0.1653918 0.06453773 0.070895895 0.12388892
000010 09 1f 59 3d bd 7a ea 3f 1b 50 95 3e f1 98 eb 3e
       0.053008113 1.8318707 0.29162678 0.46015123
000020 82 0a aa 3d cb a9 08 3d d4 78 0e 3f ec b1 c1 3f
       0.083027855 0.033365052 0.5565312 1.5132422
000030 04 86 ac 3e e8 1f 96 3d 25 f0 bf 3d 1e b9 58 3e
       0.33695996 0.073303044 0.09371976 0.21164367
000040 6d 98 a4 3e d7 18 1d 3e e3 28 90 3e 9c 73 cc 3e
       0.32147542 0.15341507 0.28156194 0.39931953
000050 c9 99 c9 3d a5 10 82 3e b1 7b 04 3d bd 70 4c 3e
       0.09843785 0.25403324 0.032344524 0.19964881
000060 09 23 94 3e ca d0 4a 3e e0 18 64 3e af 6b 14 40
       0.2893298 0.19806209 0.22275114 2.3190725
000070 39 75 33 3e 66 f6 a7 3f 44 9e 48 3e 81 e5 86 3f
       0.17525186 1.312207 0.19591624 1.0538789

fc.weight f4 [4, 1568]
000000 ea a2 e2 bd 8a 4c 45 be af ea 8a be 8c 15 84 be
       -0.1106623 -0.19267479 -0.27132174 -0.2579769
000010 82 f1 8f be 5d 6b 6e be a5 4c 94 3c 5a 1b f0 bc
       -0.28113943 -0.23283143 0.018102953 -0.029309917
000020 7b 3e e2 bd b4 cd 8c bd d2 05 47 bd 8f 35 23 bd
       -0.110470735 -0.06875172 -0.048589535 -0.039846
000030 33 72 7a bc ab fe 8b 3c a1 dc 7f bd 0c c7 b6 bd
       -0.015286016 0.017089209 -0.062466267 -0.08924684
000040 04 8e 25 bd f5 74 ec bc 8b 94 04 bd ae 40 af bc
       -0.04041864 -0.028864363 -0.032368224 -0.021393146
000050 01 b8 d5 bc b0 13 2f bd 72 aa 68 bd 90 ef df bc
       -0.026088716 -0.042743385 -0.056803174 -0.027335912
000060 19 c3 76 bd 3d 41 78 bc ba 83 f7 bb b1 8b e3 bb
       -0.060244653 -0.015152273 -0.007553545 -0.0069441427
000070 cd c3 c8 bc 12 06 42 bd e2 62 f1 bc 6d 1a 3f bd
       -0.024507428 -0.04736907 -0.029466096 -0.04665606
000080 db 46 c6 bc a5 c3 31 bd c9 5c 3f 3c 3d fa 3f 3a
       -0.024203708 -0.04339947 0.011679837 0.000732336
000090 70 6c 26 bd f5 89 92 3b d9 04 03 3c 3f 83 81 bc
       -0.040630758 0.004472012 0.007996761 -0.015809653
0000a0 d4 6f ba ba 13 b7 87 3b c4 f5 1e bb 76 eb 10 3d
       -0.0014224001 0.004141697 -0.0024255374 0.035380803
0000b0 e3 9b 11 3d 3f 0a 90 3c a3 3b c7 3c f3 3f c7 3b
       0.035549056 0.01758301 0.02432043 0.0060806214
0000c0 10 7f b2 3c 14 ec 94 3e 9e 5f 12 bf 8c bd 1c be
       0.021789104 0.29086363 -0.5717715 -0.15306681
0000d0 ab 63 d5 3c 6e 19 ba 3d 69 47 be 3d 5f 13 87 3d
       0.026048502 0.090868816 0.09290964 0.065954916
0000e0 66 18 01 b9 2f 64 c6 bd ae aa fe bc cc 06 d0 3c
       -0.00012311488 -0.09687077 -0.031087246 0.025393866
0000f0 a8 27 0d bc 52 06 f7 3c 35 04 19 3b b3 cf 21 bc
       -0.008615412 0.030154381 0.0023348455 -0.0098761795
000100 5f 09 9e bd 89 4f 30 3c 2b 28 ca 38 45 c5 ff 3c
       -0.07716631 0.01076115 9.6395925e-05 0.031221995
000110 2c d7 20 3c e5 29 ff bc ea 4a 03 3d 65 57 ae bc
       0.009816926 -0.031147907 0.032053865 -0.021281907
000120 51 3f 21 3b 92 e4 e1 3c 3f 2d 18 3d 99 8f bf 3c
       0.002460439 0.027574811 0.037152525 0.023383902
000130 9d 5f d0 bc 7e e8 2f 3d 12 6b b9 bb 1f a7 67 3d
       -0.025436217 0.04294633 -0.0056585157 0.056555863
000140 0e 16 8b 3d 15 f0 a3 3c 25 1f 21 3d 61 c7 8f bc
       0.06791316 0.020011941 0.039336342 -0.017551126
000150 53 fd 96 3c 2c 36 2d 3d 34 3b b6 3d 65 d5 9c 3d
       0.018431341 0.04228799 0.08898011 0.07657889
000160 27 18 ac 3d 0c 7f b8 3d 94 0a 8d bc d8 6d 15 3d
       0.08403044 0.09008607 -0.017216958 0.03648171
000170 4d 16 39 3c 92 37 16 3c ce 52 ff 3b 3f 0c 2e bc
       0.011296821 0.009168522 0.0077918535 -0.010623037
000180 33 91 9f 3a 7c fe 28 bb e9 ea b9 3e 40 0e 11 bf
       0.001217401 -0.002578645 0.36312035 -0.5666237
000190 8c b2 a1 bd 17 d5 d8 bb 20 ea 17 3d 11 54 11 3d
       -0.07895383 -0.006617199 0.037088513 0.035480563
0001a0 3d 67 21 3d 69 08 76 be f2 4a c7 be 39 5b ff bd
       0.039405096 -0.24026646 -0.38924366 -0.12468571
0001b0 dd 6f 28 bd c7 05 8c bd f3 d8 56 bd 98 39 36 bd
       -0.041122306 -0.068370394 -0.052452993 -0.04448852
0001c0 7c cf 3d bc 99 85 35 bd 0a 53 c7 bb b5 1f a3 3b
       -0.011585113 -0.04431686 -0.006082897 0.004978145
0001d0 b5 b6 c7 3c 12 2a c8 3c 7a ff 11 3a d2 52 6d 3c
       0.024379114 0.024434123 0.000556938 0.014485078
0001e0 ba 6e 34 bd 94 a7 9d bc 81 f7 af bc 5e c0 ed bb
       -0.04405091 -0.019244947 -0.021480324 -0.007255598
0001f0 47 17 28 bc 9c c7 95 bc ea 15 ad 3c 1a b3 65 bc
       -0.010259456 -0.018283658 0.021128614 -0.014019752
000200 59 eb 41 3c cf ca 46 bb b7 16 9a bc 68 db ad 3c
       0.011835896 -0.0030333286 -0.01880966 0.021222785
000210 d0 f1 90 bc 1d a2 ad 3c c0 24 91 bc 17 0f 2d bc
       -0.01769343 0.021195466 -0.01771772 -0.01056268
000220 30 4d a3 bc 82 a2 0c bc 23 49 4b 3d 02 a3 7a ba
       -0.019934267 -0.008583667 0.049630295 -0.0009561033
000230 c9 82 7a 3a c9 bb c0 bc ee 89 cf bc 5e 78 05 bd
       0.00095562317 -0.023527043 -0.025334325 -0.032585494
000240 d4 e3 83 bc 3c ff 98 bc 40 1b 5b bb 54 2c 15 bf
       -0.016099848 -0.018676393 -0.003343299 -0.58270764
000250 1e 56 ca be f1 42 df bc ec a1 6c 3c 41 31 ae 3c
       -0.39518827 -0.0272536 0.014442902 0.02126372
000260 aa ca 5d 3d 77 db 09 3c b6 87 43 be 84 db e2 39
       0.054148354 0.008414141 -0.19094738 0.0004326963
000270 27 69 18 be 69 d5 c1 bc 63 95 10 bc 92 83 24 3d
       -0.14883862 -0.023661332 -0.008824679 0.040164538
000280 c2 1c ea 3b fa 39 30 be f2 db b8 bd 40 4e b7 bd
       0.0071445415 -0.17209616 -0.09026326 -0.08950472
000290 08 51 88 bc 92 9e a2 bb 71 f2 18 3c a7 93 99 3c
       -0.016640201 -0.0049627507 0.009335146 0.018747164
0002a0 16 83 28 be 88 1a 1d bd 79 dc 3b bd 97 20 ed bc
       -0.16456255 -0.03835538 -0.045864556 -0.028946204
0002b0 34 fd 0d 3b ef 48 ca 3c c1 af b0 3c 2e e8 66 be
       0.0021665813 0.02469298 0.021568181 -0.22549507
0002c0 66 75 5f 3c a7 98 89 bd 9d 88 ad bc fc e0 13 3c
       0.01363883 -0.06718569 -0.021183306 0.009025808
0002d0 89 13 bc 3c 36 95 a3 3b 21 c0 77 be 59 aa f0 bc
       0.022958534 0.0049921526 -0.24194385 -0.029378103
0002e0 20 43 93 bd 14 a2 6e bd 3e cc 9f bb 9f 94 8f 3d
       -0.071905375 -0.05826004 -0.0048766425 0.07010769
0002f0 a5 c2 3b 3c b9 9c 48 3c 3e 13 13 3a a0 e5 e5 bc
       0.011459981 0.012244397 0.0005610472 -0.028063595
000300 e0 03 70 3c 08 14 8c bc 00 5b 27 3c e9 b2 66 3d
       0.014649361 -0.017099395 0.010214567 0.056322966
000310 8c 4e 6e 3e aa 69 bb be dc f6 e6 bc b9 d9 70 bc
       0.23272151 -0.36604053 -0.028193884 -0.014700347
000320 32 1d d3 bb 3a ff 25 3c c8 aa 3b 3d f1 7a d4 be
       -0.0064426893 0.010131652 0.045817167 -0.41500047
000330 a0 34 ae 3c 7e 4f 12 be 2f 4b ad 3c 32 3f ef 3c
       0.021265328 -0.14288136 0.021154014 0.029204939
000340 72 f3 3c 3d 62 76 21 3c fd f5 88 bc 4b 26 9e bd
       0.046130605 0.009854885 -0.016718859 -0.077221476
000350 34 7c 8a bd e2 04 ac bb 74 ef 01 3d ad d7 33 3c
       -0.06761971 -0.0052496055 0.0317225 0.010976714
000360 92 c5 d9 bb 77 e1 18 bd f7 7d 1b 3c a0 87 82 bc
       -0.0066458667 -0.037324395 0.009490482 -0.015933812
000370 1b 45 0e bb 95 64 74 3c ab bd 48 3d ac 41 02 3c
       -0.002170867 0.014916559 0.049009006 0.007950228
000380 58 7d 10 bd 32 ce f7 3c 95 af 1a 39 85 f3 f3 bb
       -0.035275787 0.030249689 0.00014751994 -0.0074448013
000390 a0 8a 50 bc 9e 3f d5 3c 2c 3b 92 bc 7b 08 cf bc
       -0.012728363 0.026031312 -0.017850481 -0.025272598
0003a0 4d 07 36 3d 0a 63 8f bc b7 09 95 bb 45 e0 cb 3c
       0.044440556 -0.01750328 -0.0045482772 0.024887213
0003b0 b6 4a 50 3d b8 a7 ea bb 4b 6b 52 3c 40 e1 a6 3c
       0.0508525 -0.007161107 0.012842963 0.02037108
0003c0 32 67 5b 3c 6b 03 53 3c c7 c9 8d bc ad 2b c0 3b
       0.013391303 0.012879233 -0.017308129 0.0058645816
0003d0 d8 99 29 3d 04 16 5a 3e 1d 8d 3e bc b3 d7 94 bc
       0.041406482 0.21297461 -0.011630324 -0.01816926
0003e0 16 67 3f 3c c8 19 04 3c 6c a2 16 3d ec 34 87 3c
       0.011682292 0.008062787 0.03677599 0.016504727
0003f0 c5 ce 8a 3d de 7b 92 bd 6c 06 0d bc b8 03 da 3c
       0.067777194 -0.07152532 -0.008607488 0.026613101

fc.bias f4 [4]
000000 ad d9 80 3d fe ba 3c 3d 79 f0 28 bd 05 1a 9f bc
       0.06291518 0.046076767 -0.041244958 -0.019421587
