UsefulClicker/py/model_cnn_text_rect_segmentation.ckpt (torch, 83573 bytes, 14 tensors)

layer1.0.weight f4 [16, 1, 5, 5]
000000 f6 30 66 3e ad 6d 25 3d aa e3 f6 bd 0f 3f dd bd
       0.22479615 0.040387798 -0.12055142 -0.10803043
000010 75 1a 09 bd 78 c4 32 bd a4 7f 20 3c 30 57 4d 3e
       -0.033472497 -0.0436444 0.009796057 0.2005279
000020 e7 b0 7e be d6 18 11 bd 70 a1 57 3b 64 d8 c2 3d
       -0.2487217 -0.035424076 0.003290262 0.095139295
000030 9b bf 7e 3d e3 b5 78 3d 96 f0 b5 be a5 42 13 bd
       0.062194448 0.060720336 -0.35535115 -0.03595223
000040 be dd 66 bd e0 ed ef bb 3d 6d 33 be 7c 8c be be
       -0.056363814 -0.007322058 -0.1752214 -0.37216556
000050 23 0b 5a 3e 36 76 8f 3e 59 e8 82 3d 0b df 76 3e
       0.21293311 0.28019875 0.06391973 0.24108522
000060 c7 57 84 3e f1 6d 34 3c 8b 4b 31 be b2 c2 81 be
       0.2584822 0.01101254 -0.17313974 -0.25343853
000070 34 10 7c be 53 2d 79 be db 43 06 be 31 f5 8b be
       -0.24615556 -0.24333696 -0.13111822 -0.27335504
000080 81 69 b9 be 12 10 95 bd 15 17 30 be fe f2 7b 3d
       -0.36213306 -0.07278456 -0.17196305 0.061511032
000090 ec 38 02 be ea 3f 4d bd 60 f4 8d bc c5 3a 26 3d
       -0.12717026 -0.05010978 -0.017328441 0.04058339
0000a0 1b fa eb 3d cd 7b cb bc ab e0 50 3e 66 d0 88 3e
       0.11522313 -0.024839306 0.20398204 0.26721495
0000b0 57 bf 33 3e 13 26 f2 bd 51 b8 9b bd ff 98 9e bb
       0.17553459 -0.11823668 -0.07603515 -0.004840016
0000c0 22 ce 23 3d ea f3 1c bd cb 51 cc bd 25 99 8e be
       0.039991505 -0.038318552 -0.09976538 -0.27851215
0000d0 c4 4d 14 3d 91 ef 1a 3e 38 35 ac 3d 83 12 49 be
       0.036206976 0.1513045 0.08408588 -0.19635968
0000e0 46 68 0d be 33 a7 96 bd e9 0e c7 3d ff cf 01 3e
       -0.13809308 -0.073561095 0.09719641 0.12677
0000f0 6e b0 93 bd 13 e4 53 be 8c e1 69 be 7b 6d 88 be
       -0.07211386 -0.20692472 -0.22839946 -0.26646027
000100 f2 a4 5d bd 1c 0c 26 be 87 ec 8a bd 8a 59 a8 be
       -0.054112382 -0.16215557 -0.06783395 -0.32880813
000110 c7 77 92 be 4e 74 47 be 15 d5 eb bd e0 d2 38 be
       -0.28607008 -0.1947796 -0.115152515 -0.18049192
000120 d3 30 51 be 08 39 74 bd f7 84 7b be 58 f1 83 be
       -0.20428781 -0.0596247 -0.24562441 -0.25770068
000130 8d 63 7b be 8d 57 1d 3c ee 65 e0 bc 63 e3 d6 3d
       -0.24549694 0.009603393 -0.027392354 0.10492589
000140 d6 bd 54 bd 5a 60 89 be 59 9e 9f 3d a7 72 d7 3d
       -0.051938854 -0.26831323 0.07793874 0.10519915
000150 3b 03 4b 3e b4 71 99 be 40 b3 f5 bd d0 4e 74 3e
       0.19825451 -0.2996956 -0.1199708 0.2385819
000160 11 99 1e 3d d4 94 fc 3c 37 0d e7 bd 21 d7 ae bd
       0.038720194 0.030832686 -0.112818174 -0.08537126
000170 f7 5b 20 bd ac f3 85 3e c3 85 29 3e 77 56 22 3c
       -0.039150205 0.2616247 0.16554932 0.00990831
000180 49 2b 27 be 31 fe 52 bd 34 da 18 3e 9c 26 1a 3d
       -0.16325106 -0.051511947 0.14926988 0.037634477
000190 1b c7 09 bd 20 2c 3e 3d 8b 34 0a be 4e 54 85 be
       -0.033637147 0.0464288 -0.13496606 -0.26040882
0001a0 5b 1a c3 3c fa 68 f6 3c 99 c8 8a be 92 c2 8d ba
       0.023816278 0.030079354 -0.2710617 -0.0010815433
0001b0 93 b5 84 bd 8c 7e e5 bd cb 51 60 be 88 16 0b bd
       -0.06479945 -0.112057775 -0.21906202 -0.033957034
0001c0 03 2e c0 3d 4c 73 56 be 8c 0a 25 bd db 1e 5e be
       0.09383776 -0.2094242 -0.04029326 -0.21691458
0001d0 4c b9 a0 3d 8c fb 1d 3e d9 66 8d bd 0d 95 5f 3c
       0.078478426 0.15427989 -0.06904382 0.013646376
0001e0 e4 b5 a9 bd 53 87 00 3e 9a e0 db 3a 44 eb be 39
       -0.08286646 0.12551622 0.001677531 0.0003641491
0001f0 73 c7 16 3d 2d 37 0d 3e 28 8e 1c 3e f8 02 a5 3d
       0.036811303 0.13790579 0.15288603 0.08057207
000200 7b a9 6c be 7a 69 71 be c4 5a 38 3e 08 bc 62 3e
       -0.23111527 -0.23575392 0.18003374 0.2214204
000210 23 73 38 3e 56 ea b8 3c 80 dc 2f 3e 73 75 3d be
       0.18012671 0.022572678 0.17173958 -0.18501835
000220 8f 3a d7 3d 7b fa 0e be e5 88 80 be 10 1e 64 be
       0.10509216 -0.13962738 -0.25104442 -0.22277093
000230 f0 ee 26 be 0b 7e 06 3d 49 3a 7f be 20 16 5b be
       -0.16302085 0.032835048 -0.24924578 -0.21395159
000240 84 91 08 be 1f 49 c8 bc dd 83 0a 3d 80 e4 7b be
       -0.1333676 -0.02444893 0.03381716 -0.24598885
000250 37 b6 03 be 61 70 9e be 68 a8 18 3e 42 0d f1 bc
       -0.12862478 -0.30945113 0.14907992 -0.029425267
000260 87 d8 9f be f8 ce 87 be 1b c0 9f be f5 c0 2b 3d
       -0.31219885 -0.26525092 -0.31201252 0.041932065
000270 1d 80 dd 3d 9d e5 e0 bd 15 8b d5 bd 85 37 8e be
       0.10815451 -0.10981295 -0.104269184 -0.27776733
000280 58 56 da bd 4e 56 f6 ba 80 05 68 3d 34 de 9d be
       -0.10661 -0.0018794031 0.05664587 -0.3083359
000290 5f d2 2e be 0e f9 5b be 02 64 88 be 59 c5 0e 3e
       -0.17072438 -0.21481726 -0.266388 0.1394247
0002a0 c7 ba 0f bd b4 ff 06 3e 87 c5 52 be 6d 0d 1b 3d
       -0.035090234 0.1318348 -0.20583163 0.0378546
0002b0 ac 8f 5c bd 0f 9e 18 3e 8f db e6 3d 4c da 9b be
       -0.053847954 0.14904045 0.11272346 -0.30439985
0002c0 69 b2 45 be 47 c9 8b be c4 73 71 3d e2 e8 80 be
       -0.1930634 -0.27302 0.058948293 -0.25177675
0002d0 5a a0 a2 3d 04 17 48 ba 0b 03 12 3d 24 a8 e6 bd
       0.07940741 -0.0007632824 0.035647433 -0.11262539
0002e0 5c 50 60 bd 53 3d f9 3c 1e 5e be bc 10 fd 5b bd
       -0.054764137 0.03042475 -0.023238238 -0.053708136
0002f0 4c d7 8b bc a1 f7 da 3d 4a 35 0c be ea 46 31 be
       -0.017070435 0.10691763 -0.13692203 -0.17312208
000300 8d be 04 be a6 51 0a be 0f 67 28 be 1b 7a 60 be
       -0.12963314 -0.13507709 -0.16445564 -0.2192158
000310 a4 77 8f bd 30 d0 35 bd c2 91 ed bd 0f 74 c6 bd
       -0.070052415 -0.044387996 -0.11600067 -0.09690105
000320 ae df 9a be de 14 1b bc 82 aa 9b be e6 2d e6 bc
       -0.3024878 -0.009465424 -0.30403525 -0.028098058
000330 40 3d a6 be 70 8c 43 3d 81 65 cb bc ba e8 b0 3d
       -0.32468605 0.047741354 -0.024828674 0.08638139
000340 9f c6 22 be f1 7d 0b 3e 41 9d c6 bd 26 de 59 be
       -0.1589608 0.13622262 -0.096979626 -0.21276149
000350 90 56 4f be 55 6c 1d be 6e 3d 9e bd 9c 3c 1c be
       -0.20247865 -0.15373357 -0.077265605 -0.15257496
000360 03 e9 0f be f6 8a da bd ce e1 61 bc 66 25 a6 be
       -0.1405373 -0.10671036 -0.013786746 -0.32450408
000370 56 53 56 be a3 b0 ec bd d4 90 4a be 35 45 5d be
       -0.20930228 -0.11557128 -0.1978181 -0.21608432
000380 b3 53 6e be 44 b9 99 bd e2 fa d2 bd 06 f9 1b be
       -0.23274116 -0.0750604 -0.10301758 -0.15231714
000390 8d 45 0a be a5 58 24 be 46 12 93 be de d9 43 be
       -0.13503094 -0.1604944 -0.2872488 -0.19126078
0003a0 4a d3 26 be 7b 68 85 be b6 c1 8f be 44 73 55 be
       -0.16291538 -0.26056275 -0.28077477 -0.20844752
0003b0 73 9a 99 be 60 3d 83 be 47 9f 47 be 42 b8 90 be
       -0.30000648 -0.25632763 -0.19494353 -0.28265578
0003c0 8c ed 3a 3e bc 42 e1 bb b2 cd 96 3d 68 a4 51 be
       0.1825468 -0.0068744104 0.07363452 -0.20472872
0003d0 b0 41 26 be 3e 44 96 bd 6f c0 c7 3d e8 74 4e 3e
       -0.16235995 -0.07337235 0.09753501 0.20161784
0003e0 c1 46 94 3d 99 b5 88 3d 1e 2e f5 3d bc 28 11 bd
       0.07240058 0.06675262 0.11971687 -0.035439238
0003f0 87 c2 33 be 0a c1 59 3e f5 51 74 3e 69 ab 6d bd
       -0.17554675 0.21265045 0.23859389 -0.058024798

layer1.0.bias f4 [16]
000000 b3 ab 69 3e dd f8 32 be 49 89 e6 bd bb bb cb 3c
       0.22819404 -0.17477746 -0.11256654 0.02486979
000010 ea 94 95 3d 36 05 be 3d 5a c6 66 bd 5f 16 84 3d
       0.07303794 0.09278338 -0.056341507 0.064495794
000020 fc 58 4e be bf 11 00 3e 44 8f 21 be 3b 70 2d be
       -0.20151132 0.1250677 -0.15777308 -0.16937344
000030 be ad b8 3e ba 96 3a be 1f ba 1b be 82 94 78 bd
       0.36070055 -0.1822156 -0.15207718 -0.060688503

layer1.1.weight f4 [16]
000000 86 be 9d 3f 11 bb 88 3f c3 59 8b 3f 2a ae 85 3f
       1.2323768 1.0682088 1.0886768 1.0443776
000010 2f ca 5d 3f 2f b7 b0 3f 6e 57 75 3f 0d 63 88 3f
       0.8663663 1.3805903 0.9583653 1.0655228
000020 96 73 88 3f 49 08 6d 3f 92 82 67 3f e3 98 82 3f
       1.0660274 0.9259077 0.9043361 1.0202907
000030 61 8f 86 3f 47 f8 3b 3f b5 c3 93 3f 09 73 74 3f
       1.0512506 0.73425716 1.15441 0.9548803

layer1.1.bias f4 [16]
000000 03 76 64 3c 7b 2d 9d be db 7d 32 be c0 f8 21 bd
       0.013944152 -0.3069876 -0.17430823 -0.039543867
000010 d2 58 37 be 32 70 72 bd 74 4d 20 be 29 49 f0 bd
       -0.17904976 -0.05918903 -0.15654546 -0.11732704
000020 e5 fb 6e bd 78 35 09 be c1 5c 69 be 3b 33 18 3b
       -0.058345694 -0.13399303 -0.22789289 0.0023223895
000030 57 2a 37 3d 67 d4 87 be a1 c6 53 bd 82 24 aa bd
       0.044718113 -0.26529238 -0.0517031 -0.083077446

layer1.1.running_mean f4 [16]
000000 cd 2f 88 3e a4 ce 1d bf 72 77 86 bf 2c 00 61 bd
       0.2659897 -0.61643434 -1.0505202 -0.054931805
000010 e6 80 8d be 91 f5 b2 be 4b 77 1f bf 89 fe 1b bf
       -0.27637404 -0.34952977 -0.622914 -0.60935265
000020 9b 30 9c bf 64 48 42 bf fb 29 f2 be aa b1 70 be
       -1.2202333 -0.7589171 -0.47297654 -0.23505273
000030 20 a0 c2 3e aa 0a 9c be b6 d2 c7 bf 4c 7f 82 bf
       0.3801279 -0.30476886 -1.5611179 -1.0195098

layer1.1.running_var f4 [16]
000000 d5 93 00 3e 68 0c cc 3e 99 f4 74 3f cc f1 27 3e
       0.12556393 0.39853215 0.95685726 0.16400832
000010 5a e6 2a 3e 02 25 cc 3e 6e 0b c5 3e 3a de d3 3e
       0.16689435 0.39871985 0.38485283 0.41380483
000020 d8 66 71 3f a1 89 82 3f 67 ad 51 3e 8e 14 e7 3d
       0.9429755 1.0198251 0.20476304 0.11283217
000030 a0 e7 46 3e 76 25 ed 3d 69 3c e0 3f 28 af 86 3f
       0.19424295 0.11579411 1.7518436 1.0522203

layer2.0.weight f4 [32, 16, 5, 5]
000000 c0 44 6a 3d c3 dd 0e 3d 26 b4 c6 bc 9e 5a 65 3c
       0.05719447 0.034879457 -0.024255823 0.013998656
000010 3c 4a 22 bd f5 98 b4 3e a3 9c 7a 3e ba 9f 56 3e
       -0.039621577 0.35272947 0.24473815 0.20959368
000020 d6 12 38 3e 6d 2d 1e 3e da cd a3 3d b7 39 c0 3d
       0.17975935 0.15447016 0.079982474 0.09386008
000030 51 fd 4b 3e c2 91 67 3e 27 00 22 3e ac 3f 43 bd
       0.19920851 0.22614196 0.1582037 -0.047668144
000040 f3 e3 85 bd 77 f8 e7 bc 8f 49 80 ba 52 1a 22 bd
       -0.065376185 -0.02831672 -0.0009787547 -0.039575882
000050 85 ca db bc 2e 34 86 bd bd 81 c8 bd 12 c6 a0 bd
       -0.026829967 -0.06552921 -0.097903706 -0.07850279
000060 94 04 67 bd 49 6d ca bd bd 79 18 be b3 9a a6 bd
       -0.05640085 -0.09884126 -0.1489019 -0.08134975
000070 09 61 ab bd 2f 3d d2 bd 29 1f 10 bd 32 15 de bc
       -0.08368117 -0.10265576 -0.035185967 -0.027109716
000080 83 db 09 3d fd b0 d6 3c a4 cc 23 bd 18 25 8e 3d
       0.03365661 0.026207441 -0.039990082 0.06940669
000090 ea 00 79 3d 45 ad db 3d 07 9c de 3d bc 58 a0 3c
       0.060791887 0.10726408 0.108696036 0.019573562
0000a0 a6 fa e5 bc 45 0c 28 bd d8 17 3c bb 3e 60 40 3d
       -0.02807362 -0.041027326 -0.0028700735 0.046966784
0000b0 d8 15 f0 3b a9 e7 97 bd 8b 60 b9 bd 89 05 94 bd
       0.0073268227 -0.074172325 -0.09051617 -0.07227618
0000c0 42 7d a4 bd 3c d5 0c bc f5 d2 2e 3e ca 59 c1 3d
       -0.080317035 -0.008595761 0.17072661 0.09440954
0000d0 55 e8 a1 3c ac 80 ae 3d 70 19 22 bd 63 2b 1c bc
       0.019764105 0.08520636 -0.03957504 -0.009531829
0000e0 4a dd 9c bd db fd 4f 3c bd c2 28 3d e9 33 17 3c
       -0.07659395 0.012694801 0.041201342 0.009228685
0000f0 00 cb cd bd 76 f0 c3 bd a8 40 8d bc 7f f0 85 3c
       -0.10048485 -0.09567349 -0.017242745 0.016350029
000100 a3 73 c7 bd 59 b2 aa bc d6 fa 76 bb ae c3 e2 3c
       -0.09738853 -0.020836996 -0.003768613 0.027681198
000110 10 2d 01 bb be 1a be 3c cb 4d 1f bc 26 fb 2a bc
       -0.0019710697 0.023206111 -0.009723137 -0.010435855
000120 ba cc 6a 3d 27 5d 64 3c cd 7d ab bd 51 3e 2d bc
       0.05732415 0.013938225 -0.08373604 -0.010573939
000130 0b 64 c1 3d 5f 73 65 3c 37 9b 2c 3d e3 d3 38 3e
       0.0944291 0.014004557 0.042140212 0.18049578
000140 b6 d4 ec bd a6 2e c5 bc 69 af 13 3d 40 83 89 3d
       -0.11564009 -0.024070095 0.036055956 0.06714487
000150 47 98 80 bd 72 56 de 3a 9e d2 03 3e ea 0e 57 3d
       -0.062790446 0.0016963019 0.12873313 0.052504458
000160 be bf 96 3d 83 e1 b7 3a 41 56 29 bd 68 3a d4 3d
       0.07360791 0.0014029 -0.041342024 0.103627026
000170 20 2e 8d 3d 37 b4 bb 3c fe 83 af 3c b7 f9 66 bd
       0.06893563 0.022913082 0.021425243 -0.05639049
000180 05 fc 6a 3d 9e e1 ce 3c d0 68 a2 bd 6b 6c c4 bd
       0.05736925 0.025254067 -0.07930148 -0.095909916
000190 95 03 ec 39 1c 48 2d bd b7 ab 63 bd 39 8d f2 3c
       0.00045016097 -0.042305097 -0.055583682 0.029608356
0001a0 55 3b 8c 3d 22 58 6e 3d 01 0b 5a 3d d3 27 e9 3d
       0.06847254 0.05818952 0.05323315 0.11384549
0001b0 62 b4 2c 3e 7d cd 1a 3e 8b 23 c4 3b 05 14 44 3d
       0.16865686 0.1511745 0.0059856824 0.047870655
0001c0 58 fc e5 3d fe 0f 8e 3d 6a 63 13 3e a2 c9 18 bc
       0.112297714 0.06936644 0.14393392 -0.009325417
0001d0 e5 59 2d bc d4 a7 29 bd 52 e0 1c ba 98 c9 b4 bc
       -0.010580515 -0.04141982 -0.0005984354 -0.022068784
0001e0 1c e9 ce bd 9a 0d 67 bd d4 74 df bd cc 47 ae bd
       -0.10103056 -0.056409456 -0.10910955 -0.08509788
0001f0 33 e0 c8 bd 27 c1 f4 3d 2e b7 02 3e 0e d3 1d 3e
       -0.098083876 0.119509034 0.1276519 0.15412542
000200 46 44 00 bd 16 95 b0 bd 10 8a 04 bc 57 72 bd bc
       -0.03131511 -0.08622186 -0.008089557 -0.02312581
000210 31 2f 0b 3d fa 1c f9 bd f2 93 83 bd 8a e4 15 3c
       0.033980552 -0.1216373 -0.06424703 0.009148726
000220 7a 1b 42 bd 87 b7 cb bd a5 88 66 bd 22 1c bd bd
       -0.047389485 -0.099471144 -0.056282658 -0.092338815
000230 a8 9a 3c bd d9 94 04 be 87 e3 d4 bd 64 81 e1 bd
       -0.04604593 -0.12947406 -0.1039496 -0.110110074
000240 10 f7 12 3d 34 81 00 bd 7a b3 e4 bd 70 f6 0a be
       0.03588015 -0.031373218 -0.11167045 -0.13570571
000250 1d 29 f6 bd d1 18 84 bc 34 b1 a0 bd 61 63 02 be
       -0.120195605 -0.016125115 -0.07846299 -0.12733223
000260 68 ab 65 bd c8 c7 af bc 1f 2f 37 3c 31 19 a0 bc
       -0.05607167 -0.021457568 0.011180668 -0.019543262
000270 27 57 eb 3d 92 5a b0 3d a3 f0 bb 3d e4 ac bd bd
       0.11491232 0.08611025 0.09176757 -0.09261492
000280 d1 36 fb 3d 37 d1 ad 3d b1 a9 bd 3d b4 20 15 3d
       0.12266315 0.0848717 0.09260882 0.03640814
000290 d6 7e b4 3c 2f 7f 1d bc ad f9 ab 3b 63 78 fd 3d
       0.022033136 -0.009612842 0.0052482695 0.123764776
0002a0 47 b9 ea 3d 20 95 71 b9 7f 40 1b bc 17 61 92 bd
       0.1146112 -0.00023039104 -0.009475826 -0.07147425
0002b0 66 55 88 bd f9 b5 2c 3d 96 4c fa 3d 77 d2 b8 3d
       -0.066569135 0.04216573 0.12221639 0.09024518
0002c0 e1 46 ba 3d 02 60 70 3e cf 28 8a 3e 03 e4 07 3e
       0.0909555 0.23474124 0.2698426 0.13270573
0002d0 6c ce 09 bd 92 d6 51 bd a7 e5 93 3c bd 00 ef 3d
       -0.033644125 -0.05123002 0.018053843 0.11670063
0002e0 39 ff 2d 3c e1 87 d2 bd a1 69 b7 bd f3 e9 3d bd
       0.010619932 -0.10279823 -0.08955694 -0.04636569
0002f0 e6 c4 81 bd 68 74 d6 bd fa c7 85 bd 8d e1 3e bd
       -0.063363835 -0.104714215 -0.06532283 -0.04660182
000300 5a fc 89 3c ba c9 72 bb d0 f5 b6 3c 51 43 32 bd
       0.016843963 -0.0037046508 0.02233401 -0.04352123
000310 63 42 96 bd 9c 07 84 bd bb c5 01 bd c0 e1 f9 bc
       -0.07336881 -0.06446764 -0.03168271 -0.030503154
000320 43 19 05 3e e8 2c 5f 3e 04 e4 46 3e cb bc 59 3e
       0.12997918 0.21794474 0.19422919 0.21263425
000330 9e ef 06 3e b5 78 18 bd f1 64 06 bd 53 fe 20 bd
       0.13177344 -0.03722449 -0.03281111 -0.039305042
000340 79 fd 0d bd 68 56 2d bd d1 34 c8 bd c2 8b 36 be
       -0.03466556 -0.04231873 -0.09775699 -0.17826751
000350 69 71 32 be 81 66 15 be 24 d2 dc bd 06 bd a8 bd
       -0.17426075 -0.14589883 -0.10782269 -0.08239178
000360 af cf 64 bd 3b 2b 4d bd 2e 5d a6 bd 58 c5 d1 bc
       -0.055862125 -0.050090056 -0.08123241 -0.025606796
000370 f7 a6 8f bd 40 19 72 bd be 64 c0 bd ce f6 88 bd
       -0.07014268 -0.05910611 -0.09394215 -0.06687699
000380 82 85 23 bd 78 47 d4 3c 2a bf 27 bd 6c 1f de 3d
       -0.039922245 0.025912985 -0.040953793 0.10845837
000390 92 48 c1 3d 1c 5e 06 3e 86 2c 14 bb 66 0f 22 3e
       0.0943767 0.13121837 -0.0022609546 0.15826187
0003a0 52 73 27 3e c1 94 12 3e 98 a8 83 3d 72 01 6c 3c
       0.16352585 0.14314558 0.06428641 0.014404641
0003b0 11 20 b7 3b 82 49 64 3e 62 48 82 3e 6b f4 f9 3d
       0.0055885394 0.22293666 0.2544585 0.12204822
0003c0 41 bc e3 bd 33 46 98 bd e2 32 a6 bd a4 bc 62 bd
       -0.11119891 -0.074352644 -0.08115174 -0.055355683
0003d0 ba 13 a2 3b 95 55 b7 bd 14 e6 af bd ee ff b1 bd
       0.0049461992 -0.0895187 -0.08588806 -0.08691393
0003e0 32 32 24 be 0d d0 be bd ee f5 08 3d bf 2a fe 3b
       -0.16034773 -0.09317026 0.03343766 0.0077565606
0003f0 da 2f 7e bd 76 40 10 3d 54 fe 9f bd af 42 06 bd
       -0.062057354 0.035217725 -0.07812181 -0.03277844

layer2.0.bias f4 [32]
000000 c2 e9 86 bd 46 1c 7c 39 07 ff 0e 3d 9d d0 a3 bd
       -0.065875545 0.00024043125 0.03491118 -0.07998774
000010 d7 6a 39 bd f4 34 c9 3d d8 62 33 3c 8c 04 3f bc
       -0.045267906 0.09824553 0.010948859 -0.011658799
000020 bd 14 3f bd 39 8f 31 bb 7b 8c d6 3c 38 ff 8c 3c
       -0.046650637 -0.0027093424 0.026190033 0.017211542
000030 af 65 f4 bb 9f 1f 9a bd bf 5e 8f 3d 9a dd 69 3d
       -0.0074584107 -0.075255625 0.07000493 0.0570961
000040 f1 8c 39 3d b1 41 2d 3d 2e b4 32 3c 28 28 d2 bc
       0.045300428 0.042298976 0.010907216 -0.025653914
000050 31 a2 c0 bc 3a 2a 81 bc c7 b6 c3 bd 22 49 53 3c
       -0.023514839 -0.015767206 -0.095563464 0.012895854
000060 2f 97 b9 bc cf 23 91 bd 6f 38 53 3d de 8c 1c bb
       -0.022655098 -0.07086908 0.05156749 -0.0023887674
000070 f7 c1 31 bd 8e 8d 37 bd 61 3a 52 3d 0e 71 b3 bc
       -0.04339787 -0.04481273 0.051325206 -0.021904495

layer2.1.weight f4 [32]
000000 b5 a2 69 3f 8a ee 5b 3f d8 1d 6c 3f 58 2c 40 3f
       0.91263896 0.85910857 0.9223304 0.75067663
000010 3d b0 53 3f 56 37 6d 3f f5 6f 62 3f 7c 6e 62 3f
       0.82690793 0.9266256 0.8845208 0.88449836
000020 8b 23 59 3f 79 a6 63 3f c0 d0 4a 3f 45 43 8f 3f
       0.8481986 0.8892589 0.7922478 1.1192404
000030 13 8b 59 3f c2 83 5c 3f 7e 57 47 3f 1e ba 73 3f
       0.84977835 0.86138546 0.7786788 0.9520587
000040 ee 31 5a 3f 9a f0 71 3f c8 73 57 3f 19 a0 63 3f
       0.85232437 0.94507754 0.84161043 0.88916165
000050 96 36 60 3f 59 09 4d 3f 0d 89 53 3f 16 2c 4c 3f
       0.8758329 0.8009239 0.82631 0.7975477
000060 b0 78 71 3f 70 5f 3a 3f 29 0a 6a 3f bb b7 31 3f
       0.9432478 0.72801876 0.91421753 0.69420975
000070 d1 cc 86 3f b8 8c 50 3f ca 80 8a 3f 64 2c 72 3f
       1.0531255 0.8146472 1.0820553 0.94598985

layer2.1.bias f4 [32]
000000 7e b0 57 be 9a 7c 05 be 6a e0 b5 bd 8e 7e b4 be
       -0.2106342 -0.13035813 -0.08880694 -0.35252804
000010 b4 42 38 be 50 51 1b be f5 c2 19 be 04 82 25 be
       -0.17994195 -0.15167737 -0.15015776 -0.16162878
000020 3d 75 43 be 7c 3a e6 bd 98 b3 3c be 95 b4 2f bc
       -0.19087692 -0.11241624 -0.18427885 -0.010724206
000030 07 9a 05 be 9e 2f 50 be 1f d0 96 be 35 72 5a be
       -0.13047038 -0.20330665 -0.2945566 -0.21332629
000040 07 5f fd bd b8 76 f4 bd 25 28 27 be f3 66 f4 bd
       -0.12371641 -0.11936706 -0.16323908 -0.119336985
000050 70 6e 12 be 91 9c 4d be d7 4c 37 be ca 42 30 be
       -0.14299941 -0.20079257 -0.17900406 -0.17212978
000060 03 27 e8 bd fb 3c 8a be 2e 11 29 be 0a 9b 50 be
       -0.11335566 -0.2699965 -0.1651046 -0.20371643
000070 24 6d 1c be 9e 3a 36 be 3f 94 05 be 87 13 51 be
       -0.15276009 -0.17795798 -0.13044833 -0.20417605

layer2.1.running_mean f4 [32]
000000 ce fb 91 3e 07 b1 03 c0 4c d5 b3 40 4e eb 0a c1
       0.28512424 -2.05768 5.619787 -8.682447
000010 2c c2 8d bf 74 7f 90 40 44 9a 8d bf ce c0 c1 40
       -1.1074882 4.5155582 -1.1062703 6.0547857
000020 97 61 dc 40 c3 69 9e 40 f6 c4 d0 3e 85 8d 05 40
       6.886913 4.9504104 0.4077527 2.0867627
000030 f5 6b c1 bc 80 e6 58 3f 7c 22 be 40 60 d2 dd 40
       -0.023611048 0.84726715 5.9417095 6.9319305
000040 ee c2 90 3f 71 04 20 40 87 a4 da 40 2f 71 f9 40
       1.1309488 2.500271 6.832584 7.7950664
000050 39 13 e9 40 96 38 41 40 31 8b 2b c1 e0 15 0b 41
       7.2835965 3.0190787 -10.721482 8.692841
000060 41 6a 4d 40 6a 34 b5 3f 13 9c f1 40 07 fe 6c 40
       3.2096102 1.415662 7.550302 3.7030046
000070 2f 5b b6 3f 08 36 d8 40 2a 2d 61 c0 14 01 03 3f
       1.4246577 6.7565956 -3.5183816 0.5117352

layer2.1.running_var f4 [32]
000000 48 d8 59 41 aa b4 82 41 d7 ec 40 41 37 8d 83 41
       13.615303 16.338215 12.057822 16.443953
000010 46 54 c8 40 1f 7b f4 40 73 5c 05 41 8b 22 3a 41
       6.2602873 7.6400294 8.335071 11.633433
000020 db f3 5f 41 47 15 f6 40 ae 73 1e 41 81 a9 7f 41
       13.997035 7.6900973 9.903242 15.978883
000030 cf 56 4f 41 60 d6 e5 40 97 42 c4 40 95 37 52 41
       12.9586935 7.182419 6.1331286 13.13857
000040 fd 3d 14 41 61 96 01 41 e5 d1 b7 40 fa ed 3c 41
       9.265134 8.099214 5.744372 11.8081
000050 b7 7c 0a 41 c8 07 a8 40 a1 32 b1 41 69 5d 25 41
       8.655448 5.25095 22.149721 10.335305
000060 bf 1a 97 41 36 63 cd 40 1c 9e 74 41 90 16 29 41
       18.88806 6.4183607 15.288601 10.568008
000070 a3 42 41 41 a7 2c db 40 db 95 a5 40 9b 5e 7a 41
       12.078769 6.8492007 5.174543 15.648097

fc.weight f4 [4, 1568]
000000 1d 31 83 bd 63 f6 13 bd 02 71 32 bd 42 67 80 bd
       -0.06405852 -0.036123645 -0.043564804 -0.06269695
000010 da b4 3d bd 80 44 7a bd fd 80 40 bd 4c 2c 14 bd
       -0.04631505 -0.061100483 -0.046998013 -0.036175057
000020 88 84 19 bd 0a 5c 8c bd 45 b0 5e bd 5f 93 a8 bd
       -0.037479907 -0.068534926 -0.054367322 -0.08231234
000030 49 2c 62 bd 2e 59 64 bd 6b c3 1b bd 3d c5 1b bd
       -0.055218015 -0.05574911 -0.038028162 -0.038029898
000040 13 b3 2c bd dc 5b 51 bd 0e 1e 54 bd 59 86 15 bd
       -0.042162966 -0.051112995 -0.051786475 -0.036505077
000050 b5 8b 32 bd 68 65 a0 bd 76 04 a7 bd b7 44 80 bd
       -0.043590266 -0.07831842 -0.08155148 -0.06263106
000060 93 91 6b bd 1b 27 71 bd 44 a1 81 bd d6 c1 16 bd
       -0.057511877 -0.058875185 -0.06329587 -0.03680595
000070 c9 a9 19 bd 41 73 9e bd 3b ba 99 bd fe 50 59 bd
       -0.037515435 -0.07736827 -0.07506224 -0.053055756
000080 a2 64 7c bd ee b4 9c bd ab 23 aa bd b9 ae 9e bd
       -0.06161941 -0.07651697 -0.083075844 -0.077481695
000090 d1 60 5f bd 61 58 2a bd 74 ce 30 bd 88 ea 39 bd
       -0.05453569 -0.04158819 -0.04316564 -0.045389682
0000a0 3e f3 5c bd 00 62 76 bd 45 b9 96 bd 29 70 8e bd
       -0.05394291 -0.060152054 -0.07359556 -0.069549866
0000b0 ac 87 26 bd 01 4a 1f bd 6d ad 5f bd 31 81 7e bd
       -0.04065673 -0.038888935 -0.05460875 -0.062134925
0000c0 ca a9 79 bd 9e e2 4e bd 19 c2 84 bd 6f b6 63 bd
       -0.06095294 -0.050509088 -0.06482334 -0.055593904
0000d0 18 b7 8f bd a8 40 9e bd 46 f6 8f bd 85 48 73 bd
       -0.07017344 -0.07727176 -0.07029395 -0.059395332
0000e0 da 38 82 bd 97 0e a0 bd 7f da 5b bd a0 91 86 bd
       -0.063585 -0.07815283 -0.05367517 -0.065707445
0000f0 4f 21 a4 bd 01 e2 a4 bd ee c7 81 bd 96 f2 83 bd
       -0.080141656 -0.08050919 -0.06336962 -0.06442754
000100 eb 1f 38 bd fb 56 88 bd d3 a4 34 bd 44 ab 0f bd
       -0.044952314 -0.06657215 -0.0441025 -0.03507544
000110 1a 2f 8a bd 9a ae 8e bd b8 98 aa bd de 31 27 bd
       -0.06747265 -0.06966896 -0.0832991 -0.04081904
000120 5e 1f 37 bd 38 3f 3f bd 16 22 8f bd 11 51 18 bd
       -0.04470765 -0.04669115 -0.06988923 -0.037186686
000130 d2 71 59 bd d6 c7 8d bd 98 8e ab bd c5 38 59 bd
       -0.053087063 -0.06922881 -0.08376807 -0.053032655
000140 92 28 58 bd 47 97 8c bd aa e6 44 bd 90 e8 ad bd
       -0.052773066 -0.06864791 -0.04807154 -0.084916234
000150 f0 21 78 bd 62 0d 9c bd 30 51 84 bd d5 ea a2 bd
       -0.06057924 -0.0761974 -0.06460798 -0.07954947
000160 ca 44 98 bd b2 7c 72 bd c2 74 a9 bd d9 bd 9f bd
       -0.074349955 -0.05920095 -0.08274223 -0.077998824
000170 6a c8 31 bd 3e c0 aa bd 08 a3 9a bd 7a 9c 82 bd
       -0.04340402 -0.083374485 -0.07550627 -0.06377502
000180 91 83 a2 bd 4b be 24 bd fc c9 6e bd f3 24 1e bd
       -0.079352506 -0.04022054 -0.058298096 -0.038609456
000190 a1 37 49 bd 40 68 93 bd de 9d 2f bd 2c ee 83 bd
       -0.049125317 -0.071976185 -0.042875163 -0.06441912
0001a0 64 c1 90 bd d5 72 62 bd 9b 15 84 bd cc fc a7 bd
       -0.07068136 -0.055285294 -0.064494334 -0.08202514
0001b0 ef 3c 9c bd 52 90 2f bd de c1 9e bd e7 30 a0 bd
       -0.0762881 -0.042862244 -0.07751821 -0.078218274
0001c0 56 3d 83 bd c0 6e 94 bd 71 b2 a1 bd b3 bd 84 bd
       -0.06408183 -0.072476864 -0.07895363 -0.06481495
0001d0 03 d4 6d bd b4 11 50 bd 24 54 64 bd 10 5d 1d bd
       -0.05806352 -0.050798133 -0.055744305 -0.03841883
0001e0 4e 11 89 bd d1 61 8d bd 73 fe 78 bd 11 7d 96 bd
       -0.06692754 -0.069034226 -0.060789537 -0.07348073
0001f0 a6 ff 98 bd 35 59 a0 bd 27 87 5e bd 7a 25 47 bd
       -0.07470636 -0.07829515 -0.05432811 -0.048619725
000200 1c b5 a4 bd f9 d7 8f bd 05 94 52 bd af 63 a9 bd
       -0.08042356 -0.070236154 -0.051410694 -0.08270966
000210 28 9c 82 bd d0 06 0f bd 47 1d 62 bd d8 a3 23 bd
       -0.06377441 -0.034918606 -0.055203702 -0.039951175
000220 61 3d 1e bd 37 79 17 bd c7 85 9d bd 55 7a 84 bd
       -0.038632754 -0.036980834 -0.07691532 -0.064686455
000230 21 1c 19 bd 57 4e 86 bd 6d 7d a5 bd ee 28 68 bd
       -0.03738034 -0.06557911 -0.08080564 -0.05667966
000240 0e 61 ac bd e1 1c 14 bd 5f 64 a0 bd 7a ed 2b bd
       -0.08416949 -0.036160354 -0.07831644 -0.041974522
000250 55 33 8e bd e4 87 a6 bd 88 84 a5 bd a0 1e 84 bd
       -0.069433846 -0.08131388 -0.08081919 -0.06451154
000260 32 71 50 bd 7e 35 93 bd a2 d4 22 bd 36 8c a0 bd
       -0.0508892 -0.07187937 -0.039753564 -0.07839243
000270 b0 01 9e bd 58 14 3a bd ce c0 67 bd 9c 0f 56 bd
       -0.077151656 -0.045429558 -0.056580357 -0.05226098
000280 a8 5f a4 bd 32 68 13 bd 77 e1 1e bd 0b ce 71 bd
       -0.080260575 -0.03598804 -0.03878924 -0.05903439
000290 2e 3f ad bd c1 d8 14 bd c1 6e a9 bd 3e b8 8f bd
       -0.08459316 -0.036339525 -0.08273078 -0.07017563
0002a0 d9 9c 9d bd b2 91 55 bd 10 b7 a2 bd 0a 1f 90 bd
       -0.07695932 -0.0521409 -0.07945073 -0.0703717
0002b0 1f cb 6e bd 38 be 20 bd 02 2b 97 bd be 81 8d bd
       -0.05829918 -0.039243907 -0.0738125 -0.06909512
0002c0 27 1a 32 bd 2b 8f 5e bd bb 06 71 bd 86 bf 8c bd
       -0.043481972 -0.054335754 -0.05884431 -0.06872468
0002d0 4c 28 29 bd ae 1c 35 bd f1 0c 51 bd 21 22 8f bd
       -0.041298196 -0.044216804 -0.051037733 -0.069889314
0002e0 a3 e9 56 bd 07 92 11 bd af 8d 77 bd 90 c5 40 bd
       -0.052468907 -0.035539653 -0.060437854 -0.04706341
0002f0 16 66 65 bd 1d b8 21 bd 7f 8b 6d bd ab f4 6c bd
       -0.05600556 -0.039482225 -0.057994362 -0.05785052
000300 bc f9 6d bd 62 63 0f bd 78 6f 23 bd 9c 23 7f bd
       -0.058099493 -0.03500689 -0.039901227 -0.06228982
000310 4b 34 58 bd e3 a4 9e bd 93 88 3d bd 3f 63 7b bd
       -0.052784245 -0.077462934 -0.046272825 -0.061373945
000320 28 5f 9b bd 7a 68 7f bd cf 79 8f bd 20 b0 82 bd
       -0.07586509 -0.062355496 -0.07005655 -0.063812494
000330 f5 66 33 bd 57 dc 55 bd ca 97 36 bd 53 0b 87 bd
       -0.04379936 -0.052212086 -0.04457835 -0.06593957
000340 97 95 75 bd 62 76 37 bd 8e 4d 50 bd 12 80 47 bd
       -0.059957113 -0.044790633 -0.050855212 -0.04870612
000350 0f 3f 46 bd b0 e9 57 bd 22 e6 4e bd 15 57 4c bd
       -0.04839998 -0.052713096 -0.05051244 -0.049887735
000360 99 1e 8e bd 0f 03 4f bd dc 11 13 bd fa 49 98 bd
       -0.0693943 -0.050540026 -0.035905704 -0.07435985
000370 d1 ad 6a bd 10 df 91 bd 1b d0 1f bd 8b c8 5a bd
       -0.05729467 -0.07122624 -0.039016824 -0.05341391
000380 50 5e 8b bd d5 e9 4c bd ab 7e 9b bd 2f 8c 22 bd
       -0.06805098 -0.050027687 -0.075925194 -0.03968447
000390 78 92 75 bd 18 51 28 bd 7e ba 42 bd 8e 5e 1f bd
       -0.059954137 -0.041092962 -0.047541134 -0.038908534
0003a0 c4 f8 8d bd 4f f9 a6 bd fd c7 6f bd ae fb 9d bd
       -0.06932214 -0.081530206 -0.058540333 -0.0771402
0003b0 ec 02 a1 bd 27 0f 96 bd 18 1f 57 bd 66 b1 9e bd
       -0.078618854 -0.07327109 -0.052519888 -0.0774868
0003c0 18 fd 2a bd fa 95 66 bd 90 a3 94 bd 02 60 5d bd
       -0.041745275 -0.056295373 -0.072577596 -0.05404664
0003d0 20 4f 8e bd 9b 39 9b bd bb 51 ab bd 27 c7 7d bd
       -0.06948686 -0.07579347 -0.08365198 -0.061957505
0003e0 11 47 67 bd ac f2 55 bd b8 75 92 bd 26 c9 39 bd
       -0.05646426 -0.052233383 -0.07151359 -0.045357846
0003f0 43 ee 5e bd 2a f0 84 bd 90 38 5c bd 1f 00 9f bd
       -0.054426443 -0.0649112 -0.05376488 -0.07763695

fc.bias f4 [4]
000000 d1 34 4c bd cb 6a e1 3d 0b 15 07 bd 8d a4 82 bd
       -0.049855057 0.11006697 -0.032979053 -0.06379042
