UsefulClicker/py/model.ckpt (torch, 77173 bytes, 14 tensors)

layer1.0.weight f4 [16, 1, 5, 5]
00000000: eb91 363e c267 183d fab3 103e b65f de3d
00000010: 707c a5bd 93bd 94bc b593 a3bd 9208 e7bc
00000020: 3faa 16bc dc4c c5bd 9f2c 733b 4a31 0cbe
00000030: 5461 303c 53ff c43c 9da5 c5bd da7d 8f3c
00000040: ae42 f33d e7ff f2bd e399 4d3e 3bde 34be
00000050: 21b8 bbbd 6470 0b3e ca37 6cbd 89cd a0bd
00000060: fb29 b43d 0d47 cfbd d3cf 80bd 4e53 453e
00000070: 430c 723d 297c 593d 3b94 07bc 8950 a93d
00000080: e049 0b3e 46d1 f63d 3904 50be 6ff4 f13c
00000090: be80 823d edd0 533d 6972 25be f815 89bd
000000a0: 74a4 45be 4506 0c3c 9ec6 05bd 51e7 02be
000000b0: c332 07bd 1d6c 383e 3242 d73c 58d7 d63d
000000c0: f5f9 8ebd 6bcb 4cbe c94e 15be 9b6d 68bd
000000d0: 90cd 89bd e1f8 2fbe 8d69 a13d 0091 3bbe
000000e0: f01d 36bd d577 1ebd b19e fc3d ff67 d5bd
000000f0: 6744 26bc b16e e8bd b2bd 2b3e e136 923d
00000100: 782e 48bd de0d d5bc 4cee c5bd 5205 55bc
00000110: 2d52 f5bd ae62 21be 15b1 2c3c 1db1 8bbc
00000120: b98a 2a3e ae62 333e 2f7e 933d 0091 1abd
00000130: c417 093d 8861 30be d3b3 35be 64f5 0ebe
00000140: b6f9 0abe a6a1 293e c933 c8bc 73fa a2bc
00000150: d51c 4bbe 7dda 563d f81a b33d 5263 223d
00000160: 52da 793d a8fc 8dbd ff9c 233e ab08 f63d
00000170: e9cd 023d 4035 f9bd 4dcb e1bc 9b77 ebbd
00000180: 5f8b 26be a609 113e 2d22 40bd a073 3abd
00000190: 459b 0ebe 6dbe 303d 04ca 4c3e 8d20 07be
000001a0: 7f06 8d3d 553b 303b 53fa 17be 2e6f 993b
000001b0: 30e8 cb3d 0761 5f3d 4aad c6bd a303 0f3e
000001c0: 09d0 80bc 5396 dcbd 0156 06be ce41 debc
000001d0: ff5a 1ebe c8e6 04be b1d7 01be c148 e03d
000001e0: c995 043e 8c3b 2e3c 2dbc 8fbd e92e 3a3b
000001f0: 102c 38bd 3f8d 2b3d 10b9 f8bd a0e1 be3c
00000200: 77ca 41be 1de4 36bd 312c 2d3e af8b 23bd
00000210: ef32 cd3c 5bc9 53bc 9aca 30bd 78c7 bb3d
00000220: 5812 eabc 5896 253e 176d 0f3e 748e f8bc
00000230: a1dd 59bd 54b2 d2bc 6588 1bbe cbfe 36be
00000240: 0cef 973d 9b5c 04bc b8a0 eebd 8972 0d3e
00000250: 0366 943d 4b93 03bd afb2 663d 2e00 2a3e
00000260: 5b22 373e 5a6a ee3d 32fe 643d a69b 07be
00000270: dfbd 15be 7d9e 203e 03ef 513d 606f 0a3c
00000280: 7b23 353e 46cd a63d 54c2 753d 8325 803d
00000290: 7540 583d 738f 40be 2dc9 7a3c 6bf1 0e3e
000002a0: aa21 033e 79da 423d d0b9 da3d e158 06bd
000002b0: 0ed8 043d 7842 c83d 8829 21be 00bf 213e
000002c0: 5bf0 8f3a bdb5 41be 4957 373e 1398 25be
000002d0: c559 9bbc 6532 8abd 1db0 a4bd 28ed 3dbe
000002e0: d019 7b3d 47d3 2e3e ec52 43bc 0929 16bd
000002f0: e917 1bbe 7d59 d63d 7bd5 41be ee7c 16bd
00000300: 3e55 f93d 827d 3abe 82b8 f0bd be3e 413e
00000310: a669 06be 2c4b d63d e723 573d 6f40 c3bd
00000320: a8bb 9f3d 63ef 553d e707 c7bd 632e 8d3d
00000330: 2eec aa3d 436c 233e c231 8c3d e422 db3d
00000340: fc1a 223e 7b22 843d 463c 52be 6e09 bb3d
00000350: 51cc 2bbe a071 993d a734 013e 94b7 83bd
00000360: 8739 11be ac4d ba3d e107 53be 4d57 a8bd
00000370: d551 2ebe 99a3 87bd 312b 9fbd adb0 47bd
00000380: 49cf fe3d 7218 463e e074 e13d 2db3 473e
00000390: caba 223c b06a 0b3e 1566 92bd 90ae 8fbd
000003a0: 2cb1 aabd c68d 33bd 5ed1 7bbd 5c70 043e
000003b0: a06c e6bd 8db9 5c3d 0e52 20be 24f5 23be
000003c0: 491c 6bbd f397 51bd c513 4bbd fb3e 8ebd
000003d0: 1832 13be ba8a 0abe 8091 10be af0d 45bc
000003e0: 5baf 9e3c bb40 6c3d b059 61bc 443c 5c3c
000003f0: d0ef 8bbd a1ac b13b 2d44 3d3d c801 263d
0.17829101 0.037208326 0.14131156 0.10858099 -0.08080375 -0.018156802 -0.07987157 -0.028202329
-0.009195863 -0.096338004 0.0037105454 -0.13690677 0.010765392 0.02404753 -0.09650729 0.017516065
0.118779525 -0.11865216 0.20078234 -0.17662899 -0.09165979 0.13617092 -0.057670392 -0.07851703
0.0879707 -0.10120974 -0.06289639 0.1927006 0.059093725 0.053096924 -0.008275087 0.08267314
0.136024 0.120516345 -0.20314111 0.0295355 0.06372212 0.05171292 -0.16156925 -0.06693643
-0.19301015 0.008546417 -0.03266012 -0.12783553 -0.033007395 0.18009992 0.026276682 0.10490292
-0.06981269 -0.19999473 -0.14580835 -0.056745153 -0.06728661 -0.17184784 0.0788146 -0.18317032
-0.044462144 -0.0386885 0.123349555 -0.10420226 -0.010148144 -0.11349238 0.16771582 0.071393736
-0.04887244 -0.026007589 -0.09664592 -0.013001757 -0.119785644 -0.157603 0.0105402665 -0.017052228
0.16654481 0.17518112 0.07201802 -0.03773594 0.03346993 -0.17224705 -0.17744379 -0.13960797
-0.1357182 0.1656557 -0.024438756 -0.019894814 -0.19835217 0.05245446 0.08745378 0.0396455
0.060999222 -0.06932956 0.15977858 0.12013372 0.031934652 -0.1216836 -0.027562762 -0.11497422
-0.16264103 0.14163837 -0.046907593 -0.045520425 -0.13926418 0.043150354 0.19998938 -0.13196011
0.06886005 0.0026890833 -0.14841585 0.004682443 0.099563956 0.05453589 -0.09701021 0.13966231
-0.015724199 -0.107708596 -0.13118745 -0.027130987 -0.154644 -0.12978661 -0.12679936 0.10951377
0.12947764 0.010634314 -0.070183136 0.0028409308 -0.044963896 0.04188275 -0.12144673 0.023300946
-0.1892489 -0.04465114 0.16911389 -0.039928135 0.025048701 -0.012926425 -0.043161966 0.09168905
-0.0285732 0.16170633 0.14006458 -0.030341364 -0.053189877 -0.0257198 -0.15188749 -0.17870633
0.074186414 -0.0080787195 -0.116517484 0.13813223 0.0724602 -0.03212289 0.05632275 0.16601631
0.178842 0.11641379 0.055906482 -0.13242969 -0.14623211 0.15685458 0.05125333 0.008449405
0.17689316 0.081446216 0.05999978 0.06257155 0.052795846 -0.18804722 0.015306753 0.13959281
0.1280581 0.047571633 0.10679972 -0.032799605 0.03243261 0.09778303 -0.15738499 0.15795517
0.0010981666 -0.18916984 0.1790439 -0.16171293 -0.018963704 -0.06747893 -0.080414034 -0.18547499
0.061303914 0.17072783 -0.011921626 -0.036660228 -0.1514584 0.10466287 -0.18929093 -0.036740236
0.12174462 -0.1821194 -0.11753942 0.1887159 -0.13126239 0.10463557 0.052524474 -0.09533774
0.077994645 0.05223025 -0.09718304 0.06893613 0.08345829 0.15959267 0.06845428 0.10700014
0.15830606 0.06451889 -0.20530805 0.09132658 -0.1677716 0.074923754 0.12617742 -0.06431499
-0.14182101 0.09096846 -0.20608474 -0.08219776 -0.17023404 -0.06623001 -0.0777191 -0.048752476
0.1244188 0.19345263 0.1100862 0.19501944 0.009932229 0.13614917 -0.07148377 -0.07015717
-0.08334574 -0.043836378 -0.061478965 0.12933487 -0.11251187 0.053887893 -0.15656301 -0.16011482
-0.05740002 -0.0511703 -0.0495794 -0.06945606 -0.14374578 -0.13529482 -0.14118004 -0.012027188
0.019370725 0.05767892 -0.013754293 0.013442103 -0.0683285 0.0054221903 0.046207596 0.040529042

layer1.0.bias f4 [16]
00000000: f1db 133e 16da 1c3e fc00 23be 9b00 1fbe
00000010: ea40 3abd 8ab5 983d 89d5 e13c 2eb7 363e
00000020: 9f2b db3d adaa 3cbe 2df2 7fbd 0302 133d
00000030: 529b 873c 4472 fa3a e2f7 18be 4d70 34be
0.1443937 0.15317568 -0.15918344 -0.15527575 -0.045472063 0.07456501 0.027567642 0.17843315
0.107016794 -0.18424483 -0.062486816 0.03589059 0.016553555 0.001910754 -0.1493831 -0.17620964

layer1.1.weight f4 [16]
00000000: 7ada 803f e887 803f 9111 7d3f 14dd 803f
00000010: daac 7d3f 0905 7e3f f958 7f3f 3a1f 813f
00000020: 4b10 7f3f 7b51 813f e149 7e3f ced9 7e3f
00000030: b1f5 803f c1d8 7d3f 7a64 7b3f 1a23 823f
1.0066674 1.0041475 0.9885493 1.0067468 0.99091876 0.99226433 0.99745136 1.0087655
0.99634236 1.0102991 0.9933148 0.99551094 1.0074979 0.99158865 0.9820019 1.0166962

layer1.1.bias f4 [16]
00000000: 1254 b9ba 9888 5c3b 1a11 39bc 5fd8 103c
00000010: 21c6 1abc 91b6 4cbc 758f e13b 0c32 afbb
00000020: 3fe7 02bc 1918 093c 3bda 463b 0f02 a6bb
00000030: 98c4 b8bb 34ff 93bb 180c 44bc 19f3 5f3c
-0.0014139435 0.0033650752 -0.011295581 0.008840649 -0.009446652 -0.012494699 0.0068835565 -0.005346542
-0.007989704 0.008367562 0.0030342478 -0.0050661634 -0.00563867 -0.0045165066 -0.011965774 0.013668799

layer1.1.running_mean f4 [16]
00000000: 6240 0b3e b513 f33d e4ff a7be ff2a a6be
00000010: 5e10 4dbe d701 2e3d 464f d03e 6c39 003c
00000020: 11db dc3d 848f b8be ecac 503d a2ea 9ebe
00000030: cd97 1a3d abee 2b3c 6ac7 733d 6b55 22be
0.13598779 0.11868993 -0.32812417 -0.32454678 -0.20025775 0.042482223 0.4068548 0.00782619
0.10783971 -0.36046994 0.05094616 -0.31038386 0.037742425 0.010493915 0.059516348 -0.15852897

layer1.1.running_var f4 [16]
00000000: 02bd c53c 7a4c 613d cf7e 9c3d 5cdf 913d
00000010: 85be 1f3d 56e7 a73c 3986 093e 7497 573d
00000020: 0452 af3d 08d0 da3d ac10 353d 8f77 003e
00000030: f88e a03d 98f3 f83c a2e5 683d 0edb 533c
0.024137978 0.055004574 0.07641374 0.071226805 0.039000053 0.020496052 0.13430108 0.05263467
0.08560565 0.1068421 0.044205353 0.12545608 0.07839769 0.030389592 0.05685962 0.012930645

layer2.0.weight f4 [32, 16, 5, 5]
00000000: 6615 703d f787 ccbc d0ee 673d c637 273d
00000010: dd0d 87bc 9ffb 40bd e8a7 c0bc 43c3 583c
00000020: 79d8 4e3a a6ce 51bd cf04 e4bc 821a 2abd
00000030: b15c 31bd cef5 7bbc 2675 103b a3c7 ba3c
00000040: 6669 fcbc 563b 2dbd c073 e6bc 45cc d3bc
00000050: 846b fbbc 67ed 94bc cb73 cebc 8655 2d3d
00000060: a229 3abd 93e8 503c 3988 04bd 0749 143d
00000070: ff98 e03c 27bd 823b 6a1e 4fbd a085 eabc
00000080: 8f37 dcbb b2e1 0c3c 9ff3 8abc c3e6 dd3c
00000090: 36bc 8ebc 99ca 82bc 1b41 bf3b b797 a0bc
000000a0: fa82 183d 44ac e13c 17d0 ac3c 006c 2d3c
000000b0: 352a 2ebd fc03 a43b 0af6 6e3b 2f4a d63b
000000c0: 99aa f33c e0c3 eabc eafa 47bc 1a9b 2abc
000000d0: 8df1 d1ba 77ea 05bd 8672 a33c ce9e 84bc
000000e0: 34cc 00bd 5aa7 f9bb 3085 de3b a7bf 3c3c
000000f0: d012 c2bb b9da bfbc 346d 4e3c 3151 313b
00000100: 30d8 bf39 9fff d6bc b2ff 23bd 51f4 6fbb
00000110: 7f5e 2bbd 77c3 303d a8e1 ab3c 996a b83c
00000120: dc25 17bd e21a 893c b981 1fbd 7a33 d73c
00000130: 633f a73c 8b90 483c e809 943c e5e2 a0bc
00000140: 0eb2 4cbd 5c87 953c a686 bd39 6ab9 10bd
00000150: cb52 3f3d 425f 4abd 80a4 f03c 21d2 473c
00000160: 57b8 47bd 066a 9d3a 835b ebbc 7edd 1bbd
00000170: 86cf d23c 055d 4ebd 638b 313c 6eaa 2d3d
00000180: 0395 11bd cca0 173c 860c 58bd 0dc4 f03c
00000190: c2e8 36bb 339e c7bc b90b 973c 6879 2cbd
000001a0: ec54 e63b 7996 73bc e7ec 14bd e2de f6bc
000001b0: 3e80 023d e8aa 5bbd 50c9 143d 7386 e53c
000001c0: 7b16 81bc 8146 92bc ddb2 97bc e273 c8bc
000001d0: cac8 eebc 57e3 b93a 0649 c6bc d7ab d9bc
000001e0: 0a0e 003d b9bc 4abd 5c52 24bd d05c 4fbb
000001f0: 0bde 273d 5de4 f93b 6699 133d f805 06bc
00000200: 3b23 f4bc d3f2 1ebd 8d87 25bc ae47 10bd
00000210: 3417 4ebc eacb 353c d8b9 d3bc 398b 073d
00000220: d18c 89bb bfb9 2b3c c3bd bdbb 6666 0bbd
00000230: 5cc0 9a3c 3e15 62bd 6376 64bd 6478 503c
00000240: c58c 1dbd d9f9 25bd 6dc3 3dbc aec9 b2bb
00000250: 5283 c83c 5e30 96bc 9f07 d83c 6ef4 4ebd
00000260: 6cc0 1c3d 530c 173d 3ebe 43bd 380b 64bd
00000270: 555d 0abd f189 52bd 02b6 ac3c 51bd e33c
00000280: 17db c1bb 394e 9dbc 1a13 13bc 3c1f e03c
00000290: 9ad2 52bd 23a5 ba3c 756f 2abd 52d6 b7bc
000002a0: 8504 d43c 50dc 09bd 5227 f33c 75d3 db3b
000002b0: 7eb7 a33c 3c02 c1bc 9313 843c 24d5 10bd
000002c0: e038 cf3b 5c0f cf3b 4006 82bc b727 22bc
000002d0: 018f 783b eb7e 253c 6e9a f1bc ecfc a9bc
000002e0: cc40 9abc 5fe8 99bb f607 a83c 62e4 a6bb
000002f0: d6e1 c43c 3ec8 fcbc 4916 e93c fe4f 64bd
00000300: 9487 d7bc a904 fcba 0822 773a 2636 4ebd
00000310: 3a9b 213d 4c21 d83c 90ac 9eb9 96a6 30bd
00000320: 37ea 14bd fcae d13c ba2b 1d3d a28b 36bd
00000330: 5b57 98bc 5099 2dbc d26a a13c f519 e1bb
00000340: 1cbf a43c 1e5a 6bbb 4057 74bd 9284 ef3b
00000350: b73c 193d 9f94 4dbd 1180 3abd 5413 01bc
00000360: 0b2b 4cbd 5133 6f3c c517 4cbc 0381 a03c
00000370: abf4 9e3c 1232 0d3d 713b f3bc 9986 403d
00000380: 4b24 43bd 97d5 dc3c 1d1c 853c 56cb d73c
00000390: 1206 c73c 4ef2 683c 2ab5 e3bc 745c ca3c
000003a0: c2c3 1e3d 2610 0d3d 1fff 2d3d 22c0 193b
000003b0: 279e b6bc 7f57 1e3c 2b95 88bc a006 983c
000003c0: f6a3 dabb 94b0 a1bc 0372 15bd fd2f 52bd
000003d0: fe66 e1bc 5fdd 6dbd 7838 133d 910a 09bd
000003e0: 6973 8e3c c328 69bc 28f8 bf3c 0cbf 133d
000003f0: adcd f83c 1996 26bd d0fc 41bd 8059 183c
0.058614157 -0.024967177 0.056624234 0.040824674 -0.016486103 -0.047114965 -0.023517564 0.013230148
0.00078905333 -0.051222466 -0.027834324 -0.041529186 -0.043301288 -0.015378429 0.0022042482 0.022800272
-0.030811977 -0.042292915 -0.028131366 -0.02585424 -0.030690916 -0.018179609 -0.025201699 0.04231789
-0.04544986 0.0127507625 -0.032356475 0.036202457 0.027416704 0.003989834 -0.050566114 -0.02862817
-0.0067204903 0.008598732 -0.01696187 0.027087575 -0.01742373 -0.015965747 0.0058366186 -0.019603593
0.037234284 0.027547963 0.021095319 0.010584831 -0.04252072 0.005005358 0.0036462569 0.006539605
0.029744433 -0.028657854 -0.012205819 -0.010412956 -0.0016017422 -0.032694306 0.01995207 -0.016189005
-0.031444743 -0.007618827 0.0067907795 0.011520303 -0.005922653 -0.023419725 0.012599278 0.002705645
0.0003659143 -0.026244937 -0.040038772 -0.003661413 -0.041838165 0.04315516 0.020981625 0.022511767
-0.03690134 0.016736452 -0.038942073 0.026269663 0.020415967 0.012241493 0.01807113 -0.019639442
-0.049974494 0.018253021 0.0003614921 -0.035333075 0.046709817 -0.04940725 0.029375315 0.012196095
-0.048759785 0.0012009747 -0.02873016 -0.03805303 0.02573372 -0.05038168 0.010836455 0.042398863
-0.0355425 0.009254646 -0.05274632 0.02939036 -0.002790973 -0.024367427 0.018438207 -0.04210797
0.0070291664 -0.014867418 -0.03635874 -0.030135576 0.031860583 -0.053629786 0.0363248 0.028018212
-0.01575779 -0.017855885 -0.018517906 -0.02446932 -0.029148478 0.0014182132 -0.024204742 -0.026571197
0.03126339 -0.049496386 -0.040117607 -0.0031641014 0.04098324 0.0076261 0.036034964 -0.008180134
-0.029801955 -0.038805794 -0.010103119 -0.03522461 -0.012578774 0.01109598 -0.025845453 0.033091757
-0.004197695 0.010481297 -0.0057904436 -0.0340332 0.018890552 -0.05519604 -0.055776965 0.012724016
-0.038464326 -0.040521476 -0.011582238 -0.005456171 0.02447668 -0.01833361 0.026370822 -0.050526075
0.038269445 0.036876988 -0.04778885 -0.05567476 -0.033780415 -0.051401082 0.021082882 0.027800234
-0.00591601 -0.019202339 -0.008976722 0.027358644 -0.051470377 0.022783821 -0.0416102 -0.022441063
0.025881061 -0.033657372 0.029681835 0.0067085573 0.019984957 -0.023560636 0.016122615 -0.035359517
0.0063239187 0.0063189697 -0.01587212 -0.009897164 0.0037927034 0.01010106 -0.029492583 -0.020750485
-0.018829726 -0.0046968902 0.020511609 -0.0050931433 0.024033468 -0.030857202 0.02845301 -0.05574035
-0.026309766 -0.0019227463 0.00094273733 -0.05034461 0.039454676 0.026383065 -0.00030264677 -0.04312762
-0.036356177 0.025596134 0.03837178 -0.044566758 -0.018596342 -0.010595635 0.019704256 -0.0068695494
0.02011066 -0.0035911868 -0.05965352 0.007309505 0.037411418 -0.050190564 -0.04553229 -0.007878143
-0.049845736 0.014599637 -0.012456839 0.019592768 0.019403776 0.03447158 -0.02969143 0.047003362
-0.047642034 0.026957316 0.016248757 0.026342075 0.024294887 0.014217926 -0.027796347 0.024702288
0.038760908 0.03443923 0.04247963 0.0023460467 -0.02229221 0.009664415 -0.016672691 0.018557847
-0.0066723777 -0.01973752 -0.036485683 -0.051315296 -0.02751493 -0.058072444 0.035942525 -0.033457343
0.017389016 -0.01423091 0.02343376 0.03607087 0.030371511 -0.040670488 -0.04736024 0.009298682

layer2.0.bias f4 [32]
00000000: 0b41 2a3d d7ff 98bc cf31 a2bc 74d5 f93c
00000010: 97e9 dbbc 5c52 f1bc 5c32 6d3c db97 1f3b
00000020: c36c 04bd ba41 383c e184 a7bc 5afd 573a
00000030: f1f0 c4bc 030e ddbc f7c4 2d3d e523 c03c
00000040: bdf9 d3bc 1e17 e03c 038a 38bb 86b4 28bd
00000050: 4b49 243b 26b7 3a3d 14c1 2ebd ac86 17bc
00000060: e270 dfbc 9120 3c3b 2443 c3bc 7843 85bc
00000070: cf8d 443d 072f 1a3d 6217 36bc 0362 65bc
0.041565936 -0.018676681 -0.019799141 0.03049729 -0.026844783 -0.029458217 0.014477339 0.0024351988
-0.032330286 0.011246139 -0.020449104 0.00082393514 -0.024040671 -0.02698422 0.04242417 0.023454616
-0.02587592 0.027354773 -0.0028158433 -0.041187786 0.00250681 0.04558482 -0.042664602 -0.009248417
-0.027275506 0.0028705935 -0.023835726 -0.016267523 0.0479868 0.037642505 -0.011113973 -0.014000419

layer2.1.weight f4 [32]
00000000: dfa5 7e3f 2813 823f e387 813f 164e 7f3f
00000010: 378d 803f e8f4 803f a6ee 813f 9a78 7f3f
00000020: 1be5 833f 54c3 823f bad0 813f 1551 803f
00000030: b3b6 803f 80bd 7e3f 477c 813f 6a49 823f
00000040: 011e 823f 1fac 7e3f 225f 803f 361f 803f
00000050: aa0f 7f3f 81d9 7f3f e87b 813f b852 823f
00000060: e952 7f3f 0ed4 823f 7ce4 813f c484 803f
00000070: 412f 823f 4589 813f 10fc 813f 6186 803f
0.9947185 1.0162096 1.0119594 0.99728525 1.0043095 1.007474 1.0150955 0.997934
1.0304292 1.021586 1.0141823 1.0024744 1.0055755 0.99507904 1.0116051 1.0178654
1.0165406 0.99481386 1.0029032 1.0009525 0.99633276 0.9994126 1.0115938 1.0181494
0.99735886 1.0220964 1.0147853 1.0040517 1.0170671 1.0120016 1.0155048 1.0041009

layer2.1.bias f4 [32]
00000000: c85a d0bb 474d e33b 1e7e d63b fd20 d0bb
00000010: a126 6a3b cdd6 8e3b 5cfb cc3b 4917 46bb
00000020: 4a6f 883b 1570 433b 07b5 bd3b e1b1 45bb
00000030: ba93 70bb f65b 8fbb 6e9d e63b 0a87 873c
00000040: e6fa 5c3b 2201 85bb baa3 5f3b 3fac 2cbb
00000050: 7cd4 0cbc 2eb3 fdba b649 c8ba 3d0a 4b3c
00000060: f128 e1ba 89e8 533c 9dca ad3c 7d65 843b
00000070: 583e 493c 7111 e33b 9ec7 083c b5f5 ee3a
-0.006358478 0.0069367024 0.006545796 -0.0063515888 0.003572859 0.0043591023 0.0062555503 -0.0030226281
0.0041636573 0.0029821445 0.0057894024 -0.0030165839 -0.0036709146 -0.0043749763 0.00703781 0.016543884
0.0033718883 -0.004058973 0.0034124688 -0.0026347784 -0.008595582 -0.0019355768 -0.0015280757 0.012392578
-0.0017178339 0.012933859 0.021214778 0.0040404187 0.01228293 0.0069295694 0.008348374 0.0018231185

layer2.1.running_mean f4 [32]
00000000: 589f 6ebf a2ba e4be b530 363e 3a6e 7bbf
00000010: d988 6e3f 7956 10be 9d28 363f 3a0c bebc
00000020: fed2 c13c 1d4c 203f 9247 babf 12ea 903e
00000030: dce2 5bbe 28c5 c63e 0c98 463f c22b 69bd
00000040: 0db1 383d 9c94 043f 27ad 503e e6b3 babe
00000050: 3155 a6bd 3254 cfbc b0c0 bc3e 9440 653e
00000060: 089d f73e b9fc e6be 77c3 783e 48f4 2f3e
00000070: ba54 6c3d 355a 293d 6843 223f b7e3 303f
-0.9321189 -0.4467364 0.17792018 -0.9821507 0.9317756 -0.14095487 0.7115572 -0.02319919
0.02366018 0.6261614 -1.4553092 0.2830358 -0.21473259 0.38822293 0.77575755 -0.056926496
0.045090724 0.5178926 0.20378552 -0.36465377 -0.08121718 -0.025308702 0.3686576 0.22387916
0.48361993 -0.45114687 0.24293314 0.1718303 0.05769799 0.041345794 0.63384104 0.69097465

layer2.1.running_var f4 [32]
00000000: 98eb 853e 6745 003f 3572 673e 38dc 9f3e
00000010: 29c9 e83e 3b24 7b3e 8d42 7f3e 407b 8b3e
00000020: 0c03 bc3e c969 353e f5ff f63e aa12 a03e
00000030: 38af c83e d12b aa3e 3960 833e 103a 743e
00000040: df04 283e 658d 2c3e 2e91 8b3e b660 ad3e
00000050: 6dba 333e fb75 4e3e ae9f d23e 5bc4 e93e
00000060: b642 d53e 36d5 f63e 8eda 7d3e eae8 7d3e
00000070: fb4d 593e a320 223f 1c04 433e 8cf9 f13e
0.26156306 0.501059 0.2260216 0.312227 0.45465973 0.2452554 0.24927731 0.2724247
0.36721075 0.17716135 0.48242155 0.3126424 0.3919618 0.33236554 0.2565935 0.23850274
0.16408108 0.16850813 0.272592 0.33862847 0.17551585 0.20162193 0.4113745 0.4565762
0.4165246 0.48209542 0.24790403 0.24795881 0.21221153 0.6333105 0.19044536 0.47260702

fc.weight f4 [3, 1568]
00000000: c317 d0bc e666 473c a698 e6bb 1fd0 d9bb
00000010: 8d33 953c da18 b8bb 3acd 3fbc 0dca 81bc
00000020: a54d 72bb 06af 87bb 296a b93b d725 f23b
00000030: b6ff 31bb b044 b4bc 7a9e 7139 93cc d83b
00000040: 2a11 6f3c cfb9 863c 2d45 0bbc 6a29 64bb
00000050: 978a 493c 4268 8a3c 3b48 dcba d17d 253c
00000060: 58cc f2bc ba5a 97bc 0355 c1bc e805 f4bb
00000070: 38aa 32bc bd3d abbc a798 8a3c 72a6 583b
00000080: 2422 57bc f240 7dbb d87b 04bc b3d8 223b
00000090: 4c0d 71bc ff92 0fbc e5ae e5bb a480 a0bc
000000a0: 32a2 e2bb 9a1d e8ba 5e14 383c fe14 3b3b
000000b0: 48e1 d1bb 2f82 fdbc d032 efbc 993c f93b
000000c0: 909e b3bc 10e5 f2bc eda7 2e3c f3f1 663a
000000d0: 968a 84bc cc3f 603b c620 89bb f36f 313c
000000e0: 10bd 263c 9397 05bb e08c a5bb 67e9 8c3c
000000f0: 9127 3f3c c1a0 b53b ab2a 49bb 1b3c 84bb
00000100: 87ce 68bc b0f0 713b 3f2f d1bb 026b 7abc
00000110: bc3f 913b d4d0 693b fa49 043c 75a8 9dbc
00000120: 40ca 783a 203b 2abc cace 243c 75e1 63bc
00000130: 55c6 e4bc bb25 0ebb 493e af3b 018f af3b
00000140: fa8c 363c 9a05 1b3c 29fb bd3b d1d5 4ebb
00000150: 4a07 e3bc 2844 56bb e5e0 a3bc 5bae bdbb
00000160: f10a 0aba 84e8 bdbc 293d 9fbc 94b8 123c
00000170: 7d87 b6bc c312 85bc e62c eabc fb59 df3b
00000180: 50a3 5e3c 6753 8ebc 8b9e 8b3c 8423 cebc
00000190: 229c 6b3b 4257 a6bb 5798 dcbb e9d8 ddbb
000001a0: d7af 2dbb 246c 34bc 6a99 5d3b b1b6 aa3b
000001b0: 1d3d 68bc 41ed b8bc 0384 aebc 5892 eabc
000001c0: 6a77 1c3c a059 2f3b f82e f63b 15ac 73bc
000001d0: 772d 01bd 7bf9 d9bb 3bb5 ff3b 4ce8 403c
000001e0: cdaa 613b b7b5 5abc 46c0 fcbc 2808 0a3c
000001f0: 1e45 e1bc a136 683c d0ff 56bc fd79 69bc
00000200: ae7d c8bb 4df1 56bc b71b 9bbc 9230 10bb
00000210: f9ca 3fbc 5bdd 0bbc 3b30 8fbc 7edd 98bc
00000220: 198a b0bb 5b16 cbbc 5777 753c e83d fcbc
00000230: a676 aebc 2058 6d3c e8dd 78bb a8d9 92bc
00000240: 406e f2bc a1af 6d3c e1de 6bbc aa50 e7bc
00000250: cf58 80bc 84ea 5a3c 237d dcbc 1d35 84bc
00000260: e5c6 ddbc 5c10 b1ba 75e5 f8bc af9d 2a3b
00000270: cdaa 853c 4d13 8ebc 1214 7fbb 7e65 913c
00000280: df60 adbc 2b8d 0bbc 243c 4f3c 3daa 53bc
00000290: 6cbd 5ebc f422 91bc bcee 24bc 5c65 d3bc
000002a0: e063 01bb 6c02 cabc eded efbc 55c0 e2bb
000002b0: f065 50bc 474c 943c 7751 9abc 3ea6 86ba
000002c0: 37e1 0ebb da05 4cbc 2ef5 d8bc ef14 be3b
000002d0: ee63 8bbc 8b68 b5bc 3285 553b f737 25bc
000002e0: 9f7f 933c c7ca f33a 744d 273c 9f9c 193c
000002f0: c1f7 a8bc 007f 19bb 82b6 843c 75ab 98bc
00000300: 7e27 29ba a079 ec3a a5a4 d4bc 6474 7a3c
00000310: c240 643c ab8e 4abb fd65 b83b 03f8 a239
00000320: fa75 b5bc 06ac a4bc a4dd d539 a84a d7bc
00000330: 5ead 1eba 9a6c 9dbc 4861 2abc cff5 bdbc
00000340: 0278 1dbc e344 ecbb 1bf5 efbc 943e 523c
00000350: ff76 97bc bf14 8f3c 18e7 24bc 6129 643c
00000360: 3438 8cbb a25b 993c 141c 6abc 0706 873c
00000370: a73b 9abb 4210 3f3c ac96 82bc 2d94 9c3b
00000380: e83f b23b e834 f5bc 0517 09bb 6b3d 223c
00000390: beec 67bc d27a eabc bfb8 b8bb 9df7 793c
000003a0: 0ce5 8c3c 7c50 92bc 2a48 073c 861c 3abb
000003b0: 2641 11bb 1c27 a1bc 4cea dcbc e029 123c
000003c0: dbc8 5bbc 2be5 b33b 24c9 e3bc 257d 00bd
000003d0: 12bc c1bc d258 fcbc 37a6 82bc 3132 d5bc
000003e0: dc72 00bc c4cb 22bb 95e3 15bc f85c c23b
000003f0: 796e 7c3c 8079 8dbc 61d5 283c 2f32 5ebc
-0.025401955 0.012170529 -0.00703724 -0.0066471244 0.018213058 -0.005618197 -0.011706645 -0.015843416
-0.003697255 -0.0041407375 0.005658407 0.0073897648 -0.0027160472 -0.022005409 0.00023042588 0.006616184
0.014591495 0.016446022 -0.0085003795 -0.0034814724 0.012301109 0.016895417 -0.0016806194 0.010100798
-0.029638454 -0.018475879 -0.023600107 -0.007446993 -0.010904841 -0.020903463 0.016918493 0.0033058194
-0.013130698 -0.0038643447 -0.008086167 0.00248484 -0.014712643 -0.008763074 -0.0070093744 -0.01959259
-0.006916308 -0.0017709017 0.011235325 0.0028546448 -0.0064050294 -0.030945865 -0.029199034 0.0076061008
-0.021926194 -0.029650241 0.010660154 0.0008809857 -0.016179364 0.0034217713 -0.004184815 0.010829913
0.010176912 -0.0020384535 -0.005052194 0.017201139 0.011667148 0.005542845 -0.0030695598 -0.0040354854
-0.014209396 0.0036917143 -0.006383806 -0.015284302 0.0044326466 0.003567745 0.008074278 -0.019245366
0.0009490587 -0.010390073 0.010059068 -0.013908734 -0.027926603 -0.002168997 0.005348001 0.0053576236
0.01114201 0.009461785 0.005797763 -0.003156055 -0.027713437 -0.0032694433 -0.020004699 -0.005788607
-0.00052659126 -0.023182161 -0.019438343 0.00895514 -0.022281403 -0.016244298 -0.028585862 0.0068161464
0.013588741 -0.017373754 0.017043373 -0.02516342 0.0035951217 -0.00507632 -0.0067320275 -0.0067702425
-0.0026502514 -0.011012111 0.0033813366 0.005209767 -0.014174727 -0.022574069 -0.021303182 -0.028634235
0.009549955 0.0026756302 0.0075129233 -0.0148725705 -0.0315375 -0.006652055 0.007803587 0.011774134
0.003443408 -0.013348988 -0.030853402 0.008424796 -0.027498778 0.014173181 -0.013122514 -0.014250276
-0.006118498 -0.013119054 -0.018934114 -0.0022001606 -0.011706107 -0.008536662 -0.017479053 -0.018660303
-0.0053875563 -0.024790933 0.014982066 -0.030791238 -0.02129681 0.014486343 -0.0037974063 -0.017926052
-0.029593587 0.014507205 -0.0143964 -0.028236706 -0.015667347 0.013361577 -0.026915139 -0.016138608
-0.02707238 -0.0013508904 -0.030382851 0.0026033928 0.016316796 -0.017343188 -0.0038921875 0.01774859
-0.021164356 -0.008517544 0.012648616 -0.012919006 -0.013594966 -0.017716862 -0.010066684 -0.025805168
-0.0019743368 -0.024659358 -0.029288257 -0.0069199004 -0.012719616 0.018102778 -0.018837674 -0.0010272933
-0.002180172 -0.012452567 -0.026484098 0.0058008353 -0.017015424 -0.022144577 0.0032580611 -0.010084144
0.01800519 0.0018599861 0.010211337 0.00937572 -0.02062595 -0.0023421645 0.016200308 -0.018636445
-0.0006452723 0.0018041618 -0.025957415 0.015286539 0.013931455 -0.003090779 0.0056273923 0.0003108383
-0.022150982 -0.020101558 0.0004079166 -0.026280716 -0.00060530554 -0.019216824 -0.01039917 -0.0231885
-0.009611132 -0.0072103604 -0.02929168 0.012832303 -0.018489359 0.017465947 -0.010064863 0.013925881
-0.004279161 0.018720452 -0.014288921 0.016482366 -0.004706818 0.011661591 -0.015940987 0.004778406
0.005439747 -0.029932454 -0.0020918262 0.0099023385 -0.014155565 -0.028623018 -0.005637258 0.0152567895
0.017199062 -0.017860644 0.008256951 -0.002839835 -0.0022164076 -0.01967197 -0.02696719 0.008921117
-0.013414587 0.0054899654 -0.027805872 -0.031369347 -0.02364925 -0.030804072 -0.015948398 -0.02602491
-0.007839885 -0.0024840692 -0.009148498 0.005931493 0.015407198 -0.01726985 0.01030478 -0.013561769

fc.bias f4 [3]
00000000: 45f2 713c 2d50 323c 8235 b4bc
0.014767234 0.010883373 -0.02199817
