UsefulClicker/py/model.ckpt (torch, 121205 bytes, 14 tensors)

layer1.0.weight f4 [16, 1, 5, 5]
000000 6d 29 91 3e e0 2c 16 3e 9c bf 5e be 06 d7 72 bd
       0.28351918 0.14665556 -0.2175278 -0.059287094
000010 93 d6 62 3e 21 a3 08 be 1a 2f 1a be 77 eb fb bd
       0.22152166 -0.13343479 -0.1505703 -0.12300771
000020 55 b1 85 be db 90 2a 3e 6e 4c 0c 3d fd 35 53 be
       -0.26111856 0.1665682 0.034252577 -0.20626064
000030 7b 6c 08 be 51 76 5f bd 33 9b 06 bc 85 84 0f be
       -0.13322632 -0.054556195 -0.008215713 -0.14015396
000040 22 9e ed 3d 60 fd 85 bd 2f 92 83 be 99 ce 5e 3e
       0.11602427 -0.06542468 -0.25697467 0.21758498
000050 0e 24 0d 3e bf 2b 2c 3e d5 af 1f 3c b3 b4 85 bd
       0.13783285 0.16813563 0.0097465115 -0.06528606
000060 f9 82 e3 bb 61 66 35 3e 62 75 26 bd 37 0c f5 3d
       -0.0069431034 0.17714836 -0.04063929 0.119652204
000070 e6 2f 99 bd 09 24 51 be 90 5d 2b 3e 81 51 ee 3d
       -0.07479839 -0.20423903 0.1673491 0.116366394
000080 7b aa 05 be 4e fa f9 3d a0 1b 8e be 10 2e 91 bd
       -0.13053314 0.12205945 -0.2775545 -0.07088864
000090 db c8 06 3e d8 66 df bd 6b 59 97 bd 9a c4 83 bd
       0.13162558 -0.10908288 -0.07390102 -0.06433983
0000a0 18 2d 6d 3b 92 c3 b6 bd e8 bc 22 be 3f 16 38 bd
       0.0036190208 -0.08924021 -0.15892375 -0.04494309
0000b0 ba ab 21 be 90 7a 7b 3d 50 37 2b be 1b 5b 68 bd
       -0.15788165 0.06139618 -0.16720319 -0.05672751
0000c0 43 59 36 3e 1b 03 98 bd 18 f3 f5 3c 7e 86 61 3e
       0.17807488 -0.07422467 0.030023143 0.22023961
0000d0 f7 77 98 bd 09 83 93 3d 43 05 aa bd 76 7e bc bd
       -0.074447565 0.07202727 -0.08301785 -0.09203808
0000e0 4f a1 db bb 09 fc 86 3d 25 3a 1e be 6e 7d 95 3d
       -0.006702579 0.06591041 -0.15451868 0.072993144
0000f0 47 92 8b bd b1 e6 84 be df 3a 64 be 7a 44 db 3d
       -0.068150096 -0.25957254 -0.22288083 0.1070642
000100 90 17 16 3e 6b 02 2e be c3 d0 aa 3d 7e b3 78 3d
       0.14657426 -0.1699311 0.083405994 0.060718052
000110 59 db 66 3d 22 2c 98 3c b4 3c 77 be d6 3b 17 37
       0.05636153 0.018575732 -0.2414425 9.014233e-06
000120 df 10 59 be 40 07 0c 3e 84 aa 3f 3e 25 07 63 be
       -0.21197842 0.1367464 0.1871739 -0.22170694
000130 68 fd ad bd 98 1e 05 3e 4f 97 c3 3d 09 7c ce 3d
       -0.08495599 0.12999952 0.09550344 0.100822516
000140 3d de 4a be 2e 91 54 be 5a c1 2f be d0 e6 65 bd
       -0.1981134 -0.20758507 -0.17163602 -0.056128323
000150 65 13 4d 3d 9e 23 5b 3d ac 73 6d bd f1 63 63 bd
       0.050067324 0.053500764 -0.05797164 -0.055515233
000160 e6 ff 1f be 53 d7 f3 3d d3 b9 fc bd 8b 96 54 3e
       -0.15624961 0.11906304 -0.12340131 0.20760553
000170 4a ec 8b 3d 96 dd 63 be a0 0d 84 3d 11 98 2d 3e
       0.06832178 -0.22252497 0.06447911 0.1695254
000180 d1 b9 2f 3d f2 fa 49 3e a8 75 22 3e 26 a9 07 be
       0.042901818 0.19724634 0.15865195 -0.13248119
000190 b0 c4 08 3e a6 d1 20 3e e9 87 45 be 82 b7 a8 bd
       0.1335628 0.15704975 -0.19290127 -0.08238126
0001a0 1d a4 f9 3d 8b fe ef 3d d2 5e 34 be 9a fa b5 be
       0.12189505 0.11718472 -0.17614296 -0.35542756
0001b0 09 0e d8 3d 6d 82 7c 3e 7d 0f 46 be 72 f0 54 be
       0.10549552 0.24659128 -0.19341846 -0.20794848
0001c0 ef 59 73 be c5 d7 89 bd bf 32 c3 bc c2 15 47 3e
       -0.23764776 -0.06730608 -0.023827909 0.19441894
0001d0 f2 eb 80 3d 6c 63 cb bd bb d3 0a 3a e7 b7 7e bd
       0.06295003 -0.099310726 0.00052958325 -0.0621871
0001e0 5b 43 20 bd 14 48 4e bd 51 4b 9f bc 3a d7 dc 3d
       -0.039126735 -0.050361708 -0.019445093 0.10783239
0001f0 88 b0 26 3e c9 23 06 bd 61 59 70 3d 1f b1 9b 3c
       0.16278279 -0.03274897 0.05867899 0.019005356
000200 7f e5 8e bd 1f 36 3f 3d a6 b9 a2 3d 83 21 51 3d
       -0.06977367 0.046682473 0.07945566 0.05105735
000210 ae 13 94 3e f7 38 a6 bd e8 c6 33 bd 50 5b 17 be
       0.28921264 -0.08116334 -0.043890864 -0.14780927
000220 f5 5b 66 3e a6 21 43 3e 48 05 1d 3d c0 40 81 bd
       0.22496016 0.19055805 0.038335115 -0.06311178
000230 17 ca 2f be 3b 72 8e bd 93 2b b9 3d 5d 7b 38 3e
       -0.17166935 -0.069553815 0.09041514 0.1801581
000240 18 c9 df bd 8e 7a 85 bd ef 83 26 3e 72 f2 4b 3e
       -0.109270275 -0.06517516 0.16261266 0.19916704
000250 23 ea 08 3e f2 04 a5 bd 7e 43 46 bc bd f2 cc 3d
       0.13370566 -0.08057584 -0.012101052 0.10007236
000260 8e 1a a1 3d c8 a7 73 be ee 91 93 bd bf ce 0f 3e
       0.07866393 -0.23794472 -0.07205568 0.14043711
000270 c5 02 14 be 7e 02 6b 3e 47 3a 27 3e 82 cd 5e 3e
       -0.14454181 0.2295017 0.16330825 0.21758083
000280 63 98 a1 bd 64 d3 26 be 21 85 39 3d 6c 5f 20 3e
       -0.078903936 -0.16291577 0.045292977 0.156614
000290 82 51 30 be 2c c6 76 3e 8c a4 c9 3d 49 c0 cf 3d
       -0.17218593 0.24099034 0.09845838 0.10144097
0002a0 df be d5 bd 10 d0 23 3c c3 54 b9 bd f0 10 5e bd
       -0.104367964 0.009998336 -0.0904937 -0.05421537
0002b0 ef 2e dd bd 41 9e 7a 3e e3 2f 58 3e 06 48 fb bd
       -0.107999675 0.24474432 0.21112017 -0.12269597
0002c0 85 74 51 be 92 1d eb 3d 09 20 aa bd e8 0d 7a 3e
       -0.20454605 0.114802495 -0.083068915 0.24419367
0002d0 6c 56 99 3d 6b b9 45 be 18 8b 33 3d c9 84 a2 3d
       0.07487187 -0.19309013 0.043833822 0.07935483
0002e0 f2 83 47 bc 08 e4 45 3e d9 8a 18 be e4 0b 17 3e
       -0.012177454 0.19325268 -0.14896716 0.1475063
0002f0 fc d6 55 be ed ef e0 bc 2a 4e 3b bd 3c ea ee bb
       -0.20882791 -0.027458156 -0.04572884 -0.0072911065
000300 14 c9 4c 3e 58 21 54 be a5 42 1e 3d be 09 25 3e
       0.1999858 -0.20715845 0.038637776 0.16116998
000310 55 9b 61 3e 61 75 30 be b9 f5 f7 3d c4 bc 0e 3e
       0.2203191 -0.17232276 0.12107415 0.13939196
000320 6a c0 ef 3b 36 98 f9 bb 9b a8 29 3e 89 9e 5a 3e
       0.0073166387 -0.007617022 0.16568224 0.21349539
000330 bf 23 96 bd fa cf 19 3d 46 1c 85 bd 51 a5 8f bd
       -0.07331037 0.037551858 -0.06499533 -0.070139535
000340 5d f8 a7 bd ae 1a cd ba 80 e4 4d 3e 2d 8e ec bd
       -0.082016684 -0.001564821 0.20106697 -0.115505554
000350 05 7e 7a 3e e4 8a 52 3e e8 bd cc bb eb 13 29 bd
       0.24462135 0.20560795 -0.0062482245 -0.04127876
000360 80 5e 39 3e f9 eb 44 3e f6 82 9b 3d fa aa 02 3d
       0.18102455 0.19230641 0.07593338 0.031901337
000370 6c 19 65 3d fe 9b 45 3c fc a2 9f bd 73 8e c9 3b
       0.055932447 0.012061117 -0.07794759 0.0061510145
000380 0d 9b e5 3c c9 07 55 be 8f 1d a1 bc f2 36 e9 bd
       0.028028036 -0.20803751 -0.019667415 -0.11387433
000390 68 67 44 3e 15 a5 b5 bd 19 4f 8a bd 98 38 19 be
       0.19180071 -0.088693775 -0.06753368 -0.14962995
0003a0 3b cd 27 3e 72 a9 48 3e d2 6e 7d 3d 78 be cf bd
       0.16386883 0.19595888 0.061873265 -0.10143751
0003b0 ab 23 87 ba 07 f4 a9 bd d1 4a 0d be b2 9a 95 3d
       -0.0010310313 -0.08298498 -0.13798071 0.073048964
0003c0 bd 1b 34 be b9 92 7f be f7 b8 46 3d b3 96 a4 3a
       -0.17588706 -0.24958314 0.04851624 0.0012557119
0003d0 fe 8a 13 3e 78 64 db 3d 27 05 31 be f0 2a 7b be
       0.1440849 0.10712522 -0.17287122 -0.24528098
0003e0 6a 48 48 be 66 c0 cd 3c b4 c9 9a 3e 4a 73 fb 3d
       -0.19558874 0.025116157 0.30232012 0.12277849
0003f0 9c 2e b2 bd 6c fc bb 3d e2 95 ef bd 2d 81 57 3e
       -0.08700296 0.09179005 -0.1169851 0.2104537

layer1.0.bias f4 [16]
000000 9c 47 73 bc f7 a6 98 bd 38 d5 cd bc 69 d8 af bd
       -0.014848616 -0.07453721 -0.025126085 -0.08586199
000010 2a b2 1c 3e 3f e8 c9 3d ce 81 5d be 78 c5 c6 bd
       0.15302339 0.098587506 -0.21631548 -0.09705633
000020 db c4 49 3e 9b 5c 31 be b1 66 97 bd ca 9d a6 bd
       0.19704 -0.17320482 -0.07392634 -0.081355646
000030 13 e9 44 be 59 f2 98 bd ba f1 33 be 4f 95 2d 3e
       -0.19229536 -0.07468099 -0.1757268 0.16951488

layer1.1.weight f4 [16]
000000 ce ec b0 3f 32 13 a3 3f 15 fd 90 3f d7 27 5c 3f
       1.3822267 1.2740233 1.1327235 0.8599829
000010 c1 84 96 3f f9 36 de 3e c3 0e d3 3e 5a 7d 64 3f
       1.1759263 0.43401316 0.412222 0.8925377
000020 50 1d 00 3f 3e eb 82 3f 6b 83 20 3f cb 7f 86 3f
       0.5004473 1.022804 0.6270053 1.0507749
000030 e5 b2 58 3f ee d9 91 3f 94 5a dd 3f b8 47 45 3f
       0.8464797 1.1394632 1.7293267 0.7706256

layer1.1.bias f4 [16]
000000 2c 55 a3 bd 00 c1 37 3d b6 87 56 be 3f a4 d0 bc
       -0.079752296 0.044861794 -0.20950207 -0.025468944
000010 eb 36 d8 3c bb 53 15 bf 68 03 17 bf 83 aa 29 bd
       0.026393374 -0.5833089 -0.5898957 -0.04142238
000020 f7 ad db be a7 50 93 be 6e 8d c5 bd b3 8e 9d be
       -0.42906162 -0.2877247 -0.09646116 -0.30772933
000030 22 d4 f1 bd 73 1d ef bc f6 e6 a3 3d b6 1e 78 be
       -0.11808039 -0.029188847 0.08003037 -0.24230465

layer1.1.running_mean f4 [16]
000000 67 59 0c bd 3b e7 db bd 08 96 24 bd 69 77 c7 bd
       -0.03426495 -0.10737463 -0.040182143 -0.097395726
000010 1b 7f 07 3e 51 b1 0c 3e 07 40 38 be ae 0a a8 bd
       0.1323208 0.13739516 -0.17993174 -0.08205162
000020 0d b6 7e 3e 41 0c 60 be 86 d8 de bc 93 1d 02 be
       0.24874134 -0.21879674 -0.027202856 -0.12706594
000030 b4 89 39 be 1f bd e0 bd 28 ed 36 be 40 76 09 3e
       -0.18118936 -0.10973572 -0.17863905 0.13424015

layer1.1.running_var f4 [16]
000000 2f dc 22 3b d2 22 fe 3b ed 49 15 3b 14 c7 d2 3a
       0.0024850478 0.0077556157 0.002277966 0.0016081058
000010 c6 70 35 3b 4d a5 12 3c 46 2b 00 3c 81 10 d0 3a
       0.0027685626 0.008950544 0.007822817 0.0015874059
000020 23 ba 7a 3c 77 cc 53 3c 46 eb 4b 3c a4 44 58 3c
       0.0153031675 0.012927166 0.01244623 0.013199959
000030 d8 ae 50 3a 3c 68 0f 3c 03 a2 8e 38 75 c3 00 3c
       0.0007960624 0.008752879 6.801265e-05 0.007859101

layer2.0.weight f4 [32, 16, 5, 5]
000000 c0 2b 78 3c 50 c2 50 bd f0 df 13 3b aa 2e 12 3d
       0.01514715 -0.05096656 0.0022563897 0.035689034
000010 1e 7c 5a bc 70 d9 d1 b7 31 68 88 bd 4c 79 07 bc
       -0.013335256 -2.5015994e-05 -0.06660498 -0.0082686655
000020 fc 83 a2 3d 28 81 fe ba 01 3e 85 bd 5c 47 2f bd
       0.0793533 -0.0019417154 -0.06505967 -0.042792663
000030 27 26 cb 3d cb 6f 5e 3d 05 eb bc bb 50 14 63 bd
       0.09919386 0.054305833 -0.005765321 -0.055439293
000040 b1 59 ab bd 9b 93 33 3e 93 95 3d 3e 8f 05 d6 3c
       -0.08366717 0.17536776 0.1851409 0.026125697
000050 da 70 a5 bc b9 26 21 ba af b9 0b 3c d8 a1 f7 3c
       -0.020195413 -0.0006147433 0.008528157 0.03022854
000060 d3 22 61 bd 32 d6 a5 3d ef 8f 85 bb d0 2d ea 3d
       -0.05496485 0.08097495 -0.004075996 0.11434519
000070 74 dc e8 3a 2c 07 90 bb c5 9a 3a 3d 7e 12 96 ba
       0.0017765895 -0.004395386 0.045557756 -0.0011449603
000080 cc d5 7e 3d b6 80 23 bc ee 89 ec 3b d1 12 8a 3d
       0.06221561 -0.009979418 0.007218591 0.0674187
000090 76 2c 27 3d 4e 44 c7 3d b3 bd e1 3c 53 2b 95 bd
       0.040813886 0.09729825 0.027556276 -0.07283654
0000a0 71 48 c0 3c e4 31 fc 3d ae ba de 3d 18 6a b5 bb
       0.023472043 0.123142034 0.1087545 -0.005536329
0000b0 89 94 2e bd bf 5e a7 3d d2 dd ab 3b 2a ce d0 bb
       -0.042622123 0.08172368 0.005244949 -0.006372233
0000c0 be f5 65 bd e8 15 90 bd 7b 63 64 bd b8 37 57 3d
       -0.05614256 -0.07035428 -0.055758934 0.052543372
0000d0 6f f1 91 bd c1 ac ef bc 1c 22 55 bc f9 a3 56 bd
       -0.07126128 -0.02925718 -0.013008621 -0.05240247
0000e0 47 bb cd 3c 82 a1 66 bd 06 d5 cc bc c4 68 93 39
       0.025113715 -0.05630637 -0.025003921 0.0002811608
0000f0 43 8f 2f bd 51 03 55 3c 09 23 b2 bd 42 28 63 bc
       -0.042861234 0.013001279 -0.08698089 -0.013864579
000100 74 b1 ea 3c d0 e2 e9 3d a4 09 08 3d 5c a2 d0 bc
       0.02864907 0.11420214 0.03321232 -0.025468044
000110 74 b7 4e bb 18 9d 8f 3d 7e bf 80 3d 92 49 ed 3d
       -0.0031542452 0.07012385 0.06286524 0.11586298
000120 c5 64 20 3d 21 dc d3 3b e0 51 26 bd 17 c8 91 bd
       0.0391586 0.0064654504 -0.040605426 -0.07118242
000130 27 75 6a 3d 2a fd b4 bc f8 75 19 bd 59 22 75 bc
       0.05724063 -0.022093374 -0.03746602 -0.014961802
000140 17 39 a0 bd 2d be c8 bc 65 2c c4 bc 29 7c 8f bd
       -0.07823389 -0.024504745 -0.02394695 -0.070061035
000150 8c db 3f 3a 7d 5d 8b bd ff 2d 0c 3e 88 6c c0 3d
       0.0007318787 -0.06804941 0.13689421 0.09395701
000160 07 83 37 3d 25 62 c0 3d 62 9b 4e bd 62 a1 85 bd
       0.04480269 0.093937196 -0.050441153 -0.06524922
000170 52 fb 89 bd ec 9c a2 3d 2d 1c aa 3d 58 9f 98 bd
       -0.06737389 0.07940087 0.08306155 -0.074522674
000180 c0 87 24 3b 8a b9 1b bc 79 81 16 bd e1 dd ae 3d
       0.0025105327 -0.009504685 -0.03674457 0.08538414
000190 6c 35 09 bd fd e0 8a bd 1b 1e 82 3d 1c ac b5 3d
       -0.033498213 -0.06781194 0.063533984 0.08870718
0001a0 52 c7 2f bb 84 b0 12 bd 24 8c 10 be 92 f2 0f bc
       -0.0026821685 -0.03581287 -0.1411596 -0.008785861
0001b0 18 2f dd 3b e1 1e bc 3b 5c 97 6d bd 90 58 9a bd
       0.006749999 0.0057409857 -0.058005676 -0.07536423
0001c0 e2 ed b7 bc 06 f3 93 3d de e2 8c bc d6 fa 5f bd
       -0.022452299 0.072240874 -0.017198022 -0.054682575
0001d0 6d 0b de bd 91 04 6c 3d f7 37 aa 3d ce e3 c1 3c
       -0.10842023 0.057621542 0.08311456 0.023668196
0001e0 16 3f 78 bd 74 23 3a 3d 31 9e d1 3d 67 12 a8 3c
       -0.06060704 0.045443967 0.10235251 0.020516587
0001f0 33 5d 8f bb 4f 2d c5 bd 50 4f d7 bc d6 61 de 3a
       -0.004375124 -0.096277826 -0.026282936 0.0016966413
000200 c2 eb 05 3d 6c 51 29 3d 57 fb 80 bd 3c b0 ad bd
       0.03269554 0.041337416 -0.06297939 -0.0848088
000210 3c e5 9a bc 54 2d 48 bc 87 d3 37 3d b6 d4 e2 bb
       -0.018908136 -0.012217838 0.044879463 -0.00692233
000220 c1 60 f9 bc b2 41 c6 3c 44 12 62 bc 67 ed 4a 3d
       -0.030441644 0.024201248 -0.0137983 0.04954281
000230 ee 6e a4 bc c3 8b 82 3b 0a b7 18 3d 18 97 99 3c
       -0.020072427 0.003983946 0.037283935 0.018748805
000240 aa c7 16 3d a2 05 83 3c b8 90 35 bd cb 19 88 3b
       0.03681151 0.015993897 -0.044327468 0.0041534654
000250 1f 83 70 3d a8 00 ab 3c 6e 44 c3 bd ff 1c 0f bd
       0.058718797 0.020874336 -0.09534536 -0.034939762
000260 fa ad 6f bb 30 9d 9a bb 3d 7e ac bb ef e3 74 bd
       -0.0036572204 -0.0047184452 -0.005264072 -0.059787687
000270 70 12 05 bc 76 38 7d bd 23 b1 b5 3c c6 92 a9 3b
       -0.008122072 -0.061821423 0.022179192 0.0051749675
000280 79 42 2a 3d 0a 80 c9 bb b8 98 85 3c c6 8c 02 3d
       0.0415673 -0.0061492966 0.016308174 0.031872533
000290 a5 32 72 3d 4e e7 cc bc 0a 48 d5 3b 1c 40 24 3c
       0.05913033 -0.025012638 0.006508832 0.0100250505
0002a0 8a d2 9e 3c b8 f5 ff bc e2 a4 a9 bc 58 71 1d 3b
       0.019387502 -0.031245098 -0.020708505 0.0024023857
0002b0 c7 da c4 bb 74 e9 e8 bc a7 18 f9 3c ca 55 ee bc
       -0.0060075256 -0.028431632 0.030407263 -0.029093642
0002c0 cf 14 bb bc 1b 2a f1 3c 1d 58 2d 3c d3 07 9e 3c
       -0.02283707 0.029439023 0.01058009 0.01929084
0002d0 20 3a c7 bd a0 ab 2b bc f5 0a ff bc 61 5b d8 bd
       -0.09727883 -0.01047793 -0.031133154 -0.10564304
0002e0 e6 d4 a2 bc 8c 45 9e bc c2 f0 a7 3d 4f 6b 2a 3e
       -0.019876909 -0.019320272 0.08200218 0.16642497
0002f0 01 82 0a 3e 9c 3f 44 3d 12 99 82 bc 50 af 4a 3b
       0.13526155 0.047912225 -0.01594213 0.0030927248
000300 f3 cb af bb a1 b7 ab 3b 93 32 72 3d 2c d8 87 3d
       -0.005364889 0.005240396 0.059130263 0.066330284
000310 20 f6 13 3d c4 5d c9 bc 00 54 5f bc 7a b1 6d 3d
       0.036123395 -0.024580844 -0.013630867 0.058030583
000320 55 b3 ce bd b3 94 ad 3c 3f df 6f 3d 77 30 5e 3d
       -0.100927986 0.02118907 0.058562513 0.05424544
000330 71 f4 86 bb 5b b1 e2 bd ac 83 32 bd 56 9f 43 bd
       -0.004118495 -0.11068984 -0.043582603 -0.047759376
000340 3e 47 31 39 ad 1b 7e bd bf c6 8f 3c d0 5d 9d 3d
       0.00016906575 -0.062038112 0.017550824 0.07683909
000350 d1 59 6d 3d e3 19 03 3c b7 45 ae 3d e7 38 9a bd
       0.057946984 0.008001777 0.08509391 -0.075303845
000360 58 df 7c bd 30 d3 81 3b 77 20 0b 3c 3a df 26 bd
       -0.061736435 0.003961943 0.008491627 -0.04074023
000370 d4 d5 a2 bd 07 68 18 bd c3 99 ab 3c 8e d5 b1 bc
       -0.07950941 -0.037208583 0.020947343 -0.021708276
000380 8c dc 48 3c 7a 62 ec bc 22 12 1e 3e 27 11 ee bc
       0.012259614 -0.028855551 0.15436605 -0.029060913
000390 60 e7 e1 3b a6 31 41 bd c1 fc 47 bd ab fd 91 3d
       0.006894037 -0.04716649 -0.04882503 0.071284615
0003a0 4b 8a 68 bc c1 82 84 bd 2d c7 8f 3c f9 37 09 3e
       -0.014193128 -0.06470252 0.01755103 0.13400258
0003b0 70 1a 85 3e 7a da 6b 3c b1 4f 86 3c e5 99 a3 3d
       0.25996733 0.014395351 0.016395422 0.079883374
0003c0 35 4d 00 3e 47 d5 2b 3e 39 36 37 3d ec d7 82 bc
       0.12529452 0.16780578 0.044729445 -0.0159721
0003d0 a5 7f ad 3b e9 47 36 3e ed fb ea 3d 40 99 51 3c
       0.0052947574 0.17800869 0.11473832 0.012792885
0003e0 a4 d0 5e bd d8 76 2f bd 48 04 88 bd d1 bf 8c bd
       -0.054398194 -0.042837948 -0.066414416 -0.068725236
0003f0 e2 f1 c7 3c 1c c5 25 3d e7 86 bc bc 0f ef e1 bd
       0.02440733 0.04047118 -0.023013545 -0.11031925

layer2.0.bias f4 [32]
000000 c7 61 22 bc 96 90 77 3b 0a 2f 83 bb dd b6 11 3c
       -0.009911007 0.003777539 -0.00400341 0.008893696
000010 15 15 b1 bd 81 ed 7d bd ce 63 68 bd 3f c7 3d 3c
       -0.08646599 -0.06199408 -0.056735806 0.0115831485
000020 d2 d1 3f bc 7e 8a 6c bd 8a 29 bc bc c0 99 8f bd
       -0.01170774 -0.057749264 -0.022969026 -0.07011747
000030 61 30 8a 3d 7d 14 09 bd 57 40 02 bd e9 94 38 bd
       0.06747509 -0.033466805 -0.03179964 -0.045063887
000040 07 36 1b bc b9 f6 90 bb d4 48 2d 3d 22 30 51 3c
       -0.00947333 -0.004423943 0.042305782 0.012767823
000050 1b 8f d5 3c 10 75 02 3d 40 9d b5 bd 84 d7 8d 3d
       0.026069215 0.03184992 -0.08867884 0.06925872
000060 72 76 9f 3b 08 a8 97 bc 9f 3a de 3c 8f 4b 45 bd
       0.0048664147 -0.01851274 0.027127562 -0.04816776
000070 4d 67 81 bb a0 2c fe 3c 01 af 4b ba b7 1a 6a bc
       -0.003949082 0.031027138 -0.0007769913 -0.014288596

layer2.1.weight f4 [32]
000000 49 e9 7c 3f af 33 8f 3f 9c 74 70 3f 39 a1 8a 3f
       0.98793465 1.1187648 0.9392793 1.0830451
000010 c2 42 9b 3f 7e db 9a 3f 1f 55 e8 3f 9e c2 86 3f
       1.2129748 1.2098234 1.8150977 1.0528142
000020 bf 70 a5 3f ed f3 b5 3f 9a fc 7f 3f eb 2b 08 40
       1.2925032 1.4215065 0.99994814 2.1276805
000030 08 05 8a 3f 26 e8 c8 3f 87 ae bf 3f a5 8f 9a 3f
       1.0782785 1.5695846 1.4975137 1.2075087
000040 3e 79 89 3f 15 7f b1 3f 7c 95 99 3f a6 df 81 3f
       1.0740125 1.3866907 1.1998744 1.0146377
000050 9d 7c 8c 3f 28 37 80 3f aa a5 cf 3f 4e db af 3f
       1.0975529 1.0016832 1.6222432 1.3738801
000060 cf 02 9d 3f 93 75 d6 3f ec aa 6b 3f ed d0 b9 3f
       1.2266482 1.6754631 0.9205768 1.4516884
000070 2c ae 87 3f b1 58 91 3f 37 67 5a 3f b4 84 53 3f
       1.0600028 1.1355191 0.85313743 0.82624364

layer2.1.bias f4 [32]
000000 81 15 f8 bd ff ae 2a be fe 1e ea bd 94 81 4f 3c
       -0.121134765 -0.16668318 -0.114316925 0.012665171
000010 46 16 64 be 2b 09 2a be e8 9d 52 be cf cc d6 3d
       -0.22274122 -0.1660506 -0.20568049 0.10488283
000020 22 70 0e be e7 20 91 bd 7c 7c 58 3d 3b b8 a2 bd
       -0.13909963 -0.07086354 0.052853093 -0.079452954
000030 55 80 66 be a7 38 19 be 94 30 74 be 89 04 ff bd
       -0.22509892 -0.14963017 -0.23846656 -0.12452037
000040 fd 97 1d bd f0 93 49 be 8a b7 24 bd 6c cb 8d 3d
       -0.038475025 -0.1968534 -0.0402141 0.06923565
000050 37 25 17 be 6a 2a 86 3d b1 c1 4f be 63 10 6a be
       -0.1476029 0.065510586 -0.20288731 -0.22857814
000060 b4 c4 7a be ac 8d 7e be fb 13 aa bc d7 b6 10 be
       -0.24489099 -0.24858731 -0.02076148 -0.14132248
000070 f0 4f 43 be c9 72 39 be dd a0 e7 bd 4c 71 66 be
       -0.19073462 -0.18110193 -0.11309979 -0.22504157

layer2.1.running_mean f4 [32]
000000 c7 21 5a 3f 17 30 45 3f 78 6b 67 c0 44 c8 97 bd
       0.8520779 0.77026504 -3.6159344 -0.074112445
000010 86 0a d8 be 5f bf f7 be 35 11 50 3e dd d3 d9 c0
       -0.4219553 -0.48388192 0.20319064 -6.807112
000020 42 76 1a bd ab 15 d7 3e f4 f3 79 c0 87 b8 98 3e
       -0.037710436 0.4200872 -3.9055147 0.29828283
000030 78 e9 9a 3f 42 ff 69 bd e5 e9 ba 3c d1 eb 85 3f
       1.2102499 -0.0571282 0.022816608 1.046259
000040 71 05 f9 bd 46 d5 07 3f 99 4b 12 be 06 29 6b bf
       -0.12159241 0.53059804 -0.1428665 -0.9185947
000050 1c f7 81 3e d3 5b 61 c0 4b 3a 27 bf 7b fb 84 3e
       0.25383842 -3.5212295 -0.65323323 0.25973114
000060 c4 68 89 3f 8e 18 04 3f 8c 76 4f bf 4a e4 18 be
       1.0735097 0.5159997 -0.81040263 -0.14930835
000070 62 e0 d8 3f 13 44 13 be d3 82 55 bf 14 72 69 40
       1.6943476 -0.14381437 -0.83402747 3.6475878

layer2.1.running_var f4 [32]
000000 f2 04 75 3f b0 b4 04 40 3b c1 56 41 73 93 45 3f
       0.9571067 2.0735283 13.422175 0.77178115
000010 da 0a 96 3f 88 ba 87 3f 91 8e 68 3e 9e c0 e7 40
       1.1722062 1.06038 0.22710635 7.242263
000020 04 76 b7 3e d7 b5 ff 3e c3 c6 3e 40 61 7b 91 3e
       0.35832226 0.4994342 2.9808815 0.28414443
000030 e2 aa 1a 3f 9e 9f 5e 3e 80 ae b8 3e ed ff 45 3f
       0.60416996 0.21740577 0.36070633 0.77343637
000040 bb 8b 86 3f 3c ae ce 3e 52 9c 0e 3f 68 75 5c 40
       1.0511392 0.40367305 0.55707276 3.444666
000050 58 f3 68 3f b9 6a 59 40 b7 ea 2f 3f 0e 7c 83 3e
       0.90996313 3.3971388 0.6871752 0.25680584
000060 de 34 3d 40 0f db 88 40 d1 db ee 3f 91 13 87 3e
       2.9563518 4.2767406 1.8660833 0.26382115
000070 5f 83 00 40 2b ae 54 3f 47 f3 02 40 a5 47 80 40
       2.0080183 0.8307826 2.0460985 4.0087457

fc.weight f4 [10, 1568]
000000 f6 a7 a9 be 81 aa 09 bf 58 73 37 be e2 38 fe 3a
       -0.33135957 -0.53775793 -0.17915094 0.0019395615
000010 ca 57 10 3d 4e a2 80 3d a1 13 4a 3d 69 86 b1 be
       0.035239972 0.06280957 0.049335126 -0.3467286
000020 73 69 68 be aa d8 8e bd 00 3b e5 bc 91 e1 e2 bc
       -0.22696476 -0.06974919 -0.027982235 -0.02769545
000030 14 94 e3 bc bd de 4b 3d 5c 80 40 be 54 04 e1 bc
       -0.02778057 0.049772967 -0.18798965 -0.027467884
000040 81 64 a2 bb ba f1 60 3c b3 87 f2 bc 98 97 03 bd
       -0.0049558287 0.013729507 -0.029605722 -0.032126993
000050 3a 80 60 bb 73 8a c1 bd d4 58 c0 3c 8c e2 93 bc
       -0.0034256116 -0.09450235 0.023479857 -0.018052362
000060 3b 93 1e 3c 2e 88 c4 bc b6 86 2c bd e7 3f 77 ba
       0.009678657 -0.023990717 -0.042120658 -0.00094318244
000070 b5 e4 ac bc 3a a4 5c 3d 05 4d 03 3c 6d 4d 8e 3c
       -0.02110515 0.053867556 0.008013968 0.017370904
000080 5d 53 55 bc 0a ee a7 3c 31 13 be bc db 68 a8 bc
       -0.013020364 0.020499248 -0.02320251 -0.020557811
000090 96 90 44 3d 06 9e fc 3c 51 b3 3d 3d 56 e6 f9 3c
       0.04798945 0.03083707 0.046313588 0.03050534
0000a0 1a 1f 09 3d ce 27 6d 3d 0e a8 9b bc 33 b9 b6 3d
       0.033476926 0.05789929 -0.019001033 0.08922043
0000b0 b2 c9 40 3b 36 74 e2 bc 5b 8c 7f 3c d5 40 b5 3d
       0.0029417095 -0.027643304 0.015597428 0.08850256
0000c0 65 67 a2 3d b0 58 fa be c4 37 12 bf 9e e2 5e be
       0.07929877 -0.48895788 -0.5711634 -0.21766135
0000d0 62 2c c0 bd 43 0c 94 bd a3 0e ea 38 25 eb 16 3d
       -0.09383465 -0.07228901 0.00011160716 0.036845345
0000e0 6b dd c5 bd b8 27 dd bd 46 cf 38 bd 29 63 34 bd
       -0.09661373 -0.107985914 -0.045119546 -0.04403988
0000f0 5e 59 d4 bc 50 df d0 bc 15 15 55 bd 57 31 f7 bc
       -0.02592152 -0.025497109 -0.05202206 -0.030174894
000100 27 8f 95 bd d4 b2 b8 bd d8 53 cf bd c6 5a af bd
       -0.07302695 -0.09018484 -0.10123414 -0.085622355
000110 e1 aa 87 bd 94 16 ab bd cb 2c 29 3c 0d c7 a1 bd
       -0.066243894 -0.08353916 0.010325621 -0.07899294
000120 0f ca 37 bd e5 54 7a bd c5 65 b5 bd 05 bc f1 bc
       -0.044870432 -0.061116118 -0.088573016 -0.0295086
000130 2c 56 a9 bd e6 9f 59 3d 24 39 17 bc c0 0d 33 bc
       -0.08268389 0.053131007 -0.009229932 -0.010928571
000140 58 b8 02 bd 01 e5 14 bd 60 ab 10 bd c5 5d 1d bd
       -0.031914085 -0.036351208 -0.035319686 -0.038419504
000150 f6 71 d4 3d 32 b1 c4 3c 5c fc 15 3d 5e 12 68 3c
       0.10373299 0.024010275 0.03661762 0.014164535
000160 be a2 81 3c 31 53 53 bd b3 cc 3c bd 1e 74 3f 3c
       0.015824672 -0.05159301 -0.046093654 0.011685399
000170 bc 61 32 bc 66 a5 1f 3d c5 15 d1 3c 45 19 2e bd
       -0.0108875595 0.038976096 0.025523076 -0.042504568
000180 69 7f f8 bd 50 47 4e bd de 15 fe 3d 86 d2 e9 3d
       -0.121336766 -0.050360978 0.124065146 0.11417107
000190 82 86 f8 3d 94 27 87 3d 9f 77 e4 3d 62 bd 9a 3d
       0.1213503 0.06599346 0.111556284 0.07555653
0001a0 51 dc 98 3d a5 1c 3c bd d2 69 86 bd f1 32 3b bd
       0.07463897 -0.045925755 -0.065631524 -0.04570288
0001b0 89 21 88 bd 91 74 b3 3b 0c a1 a4 3c 5e 9d ce 3d
       -0.06647021 0.0054765423 0.020096324 0.10088609
0001c0 c1 3b 7c 3d 79 6c 3c bd c7 8a b5 bc d3 a2 b6 bb
       0.061580423 -0.046001885 -0.0221609 -0.0055736094
0001d0 cd af 72 bc 06 48 8f 3c 76 1e ca 3d 30 4a 00 3d
       -0.014812422 0.017490398 0.09869091 0.03132075
0001e0 e0 88 07 bd 5f ea 65 bc 42 86 e1 3c f9 9c 46 3d
       -0.03308952 -0.014032929 0.02752984 0.048489545
0001f0 ba f5 0d 3d 85 ed b4 3d 9c 56 4e 3d 03 a1 d6 3c
       0.03465817 0.08834366 0.050375566 0.026199823
000200 73 b1 60 3c 73 58 c4 3c f8 df bb 3c 6e b8 76 3d
       0.013714182 0.023967957 0.022933945 0.06023448
000210 7c 54 dc 3d 02 0a 9f 3c 6a 31 6a bc ae af 10 bd
       0.107583016 0.019413952 -0.014294008 -0.03532379
000220 df bf 84 3c 9c 6e 7e 3d 97 55 8e 3d 25 86 8d 3d
       0.016204773 0.062117204 0.06949919 0.06910352
000230 e9 76 a6 3d aa 5d 5c bd 84 14 b2 bd f5 de 9e bd
       0.08128149 -0.053800263 -0.08695319 -0.077573694
000240 e9 09 14 3d 6c d0 45 3d 79 e5 f7 3d 86 29 30 3e
       0.036142264 0.04829447 0.12104315 0.1720334
000250 64 23 9a be 0a 2d 78 3c e6 48 aa 3d 0c e5 c9 3c
       -0.30105126 0.015147457 0.083146855 0.02464535
000260 25 a2 1e 3d 97 63 02 3d 54 12 17 3e 95 ee 06 be
       0.03872885 0.031833258 0.14753085 -0.1317695
000270 00 bf a2 bc fb 5d b2 bb 3e 14 46 bd bf dd 97 bc
       -0.019866467 -0.0054433323 -0.04835915 -0.018538354
000280 24 98 07 be ad 83 e4 3d 5f 9d 2b be db 39 4b bd
       -0.13241631 0.11157928 -0.16759251 -0.049615722
000290 e6 62 38 bd 59 8d 2e bd e2 c2 44 bd c8 91 30 be
       -0.045016192 -0.04261527 -0.048037417 -0.17243111
0002a0 03 6c 77 3d 95 ee 2b be cf b6 ac bd b1 a7 29 bd
       0.060405742 -0.1679023 -0.084333055 -0.04141969
0002b0 9b 94 84 bd 44 31 b9 bd c8 23 69 be 6a e0 34 3d
       -0.06473657 -0.090426 -0.22767556 0.04415933
0002c0 50 04 01 be 52 96 78 bd 85 d3 24 bd 2c c4 30 bd
       -0.12599301 -0.06069023 -0.040240783 -0.043155834
0002d0 83 02 6e bd a0 84 45 be 78 d9 50 3d a3 c2 7d bd
       -0.058107864 -0.19288874 0.050988644 -0.0619532
0002e0 09 6b f6 bc c9 a9 90 bb ef f9 a2 bd 8f 4d c2 bd
       -0.030080335 -0.004414771 -0.07957827 -0.094874494
0002f0 af 7d 1b be 06 e4 80 3d 6d 63 19 3d 73 5a c2 b9
       -0.15184663 0.06293492 0.037448335 -0.00037069953
000300 79 ed 8d bb 0e c1 49 ba fc b8 81 3c 79 3b 35 bd
       -0.0043312875 -0.0007696309 0.015835278 -0.04424617
000310 d3 94 14 bf dd 82 23 bf df 4b 88 bd 6e e8 a1 bd
       -0.5803959 -0.63871557 -0.06655096 -0.079056606
000320 69 3d b6 bd 3a 01 83 bc b8 e1 fc 3d e1 86 55 3d
       -0.08898432 -0.015991796 0.1234774 0.052130584
000330 48 34 a4 be 56 83 aa bd 8f 2c 6c ba 64 82 9e bc
       -0.32071137 -0.083258316 -0.00090093253 -0.019349284
000340 2c a8 3a 3d de ec 8b 3c 7e 1d 7d 3c d8 4f 6f bd
       0.045570537 0.01708072 0.015448926 -0.058425754
000350 00 34 ab bd 29 6e 95 bd 97 96 b2 39 b4 1b 20 bc
       -0.083595276 -0.07296402 0.00034063004 -0.00977223
000360 3c 28 b1 bd fa 66 6a 3d fa 9a 80 bd 46 92 ab 3a
       -0.08650252 0.057227112 -0.062795594 0.0013089858
000370 b4 46 61 bc 7b 47 2a 3b 05 12 1d 3c e4 40 c7 bd
       -0.013749767 0.0025982547 0.009586816 -0.09729174
000380 07 a2 aa 3d b5 43 85 bd c1 8a 11 3d 09 73 fa 3c
       0.083316855 -0.06507055 0.035532717 0.030572431
000390 4a eb 26 3d 8f fe bf 3d 68 7b 98 3c e7 f0 8b 3d
       0.040751733 0.09374725 0.018613532 0.06833058
0003a0 7b 68 d6 3c 7e e1 06 3e c6 52 07 3e bb ea a5 3d
       0.026172867 0.13171956 0.1321517 0.08101412
0003b0 3d 9b d2 3d 01 2c 8d 3d bd 50 7f 3c b6 9e 64 3c
       0.102835156 0.06893159 0.015583214 0.013953855
0003c0 d3 fb ec 3c f4 02 17 3d a1 65 95 3c ac b5 b3 3b
       0.028928673 0.03686805 0.018236937 0.0054843035
0003d0 df 3b b2 3c 80 f0 0a bf 25 b9 34 bf f3 73 8f be
       0.021757064 -0.54273224 -0.7059501 -0.2801815
0003e0 21 d4 11 be 97 db 04 be bb a4 34 bd 7e 7e b1 3d
       -0.14241077 -0.12974392 -0.04410241 0.086667046
0003f0 09 4b b6 3d 32 e7 c8 bd 87 0d a6 bc de 4f 8f bb
       0.089010306 -0.09809722 -0.020270122 -0.0043735346

fc.bias f4 [10]
000000 09 ef ed 3d 5a 31 b7 3d 0e 5b f1 bd 71 12 72 bb
       0.11617858 0.0894496 -0.117849454 -0.0036937261
000010 6e 1a e5 bc 47 db 8a bc f0 63 28 bd 6d e3 d5 bb
       -0.027966704 -0.016950263 -0.041110933 -0.0065273554
000020 ec 47 04 bc 53 ca 01 bd
       -0.008073788 -0.031687092
